weights/UV_W6A6/PTQ/vae_ckpt_merge_saw_sep.pth (torch, 849846 bytes, 392 tensors)

model.encoder.conv_in.scale_factor f4 [1, 3, 1, 1]
00000000: 9091 b93f 70c0 b83f 25d4 b73f
1.4497547 1.4433727 1.4361616

model.encoder.conv_in.offset f4 [1, 3, 1, 1]
00000000: 2019 d03b 96b3 533c 2ba4 293c
0.0063506514 0.012921235 0.010354082

model.encoder.conv_in.weight_quantizer_0.x_min f4 [128, 1, 1, 1]
00000000: aaf3 61be 0ff3 87be 434c 9dbe 69ea 93be
00000010: e78f 8fbe 8558 86be 82be 8fbe a448 8abe
00000020: 6d2b 9ebe a7cf a9be 19ac 98be 9268 76be
00000030: 076a 70be bc3b 8cbe 3e4b 88be e48b 74be
00000040: 060b 84be f22d a1be 0ad0 85be c6af 5dbe
00000050: 9326 a9be 26c3 89be bced 9dbe fa84 97be
00000060: 9c75 97be 5c18 75be 4b0d 8ebe ccbd 8bbe
00000070: 27a1 a1be 24d9 c7be 6ce5 90be 7fb7 8dbe
00000080: 8f4d b1be d273 7dbe 9a98 aabe a042 88be
00000090: cd8e 90be 4092 70be 53dc 93be 1866 85be
000000a0: 51e7 84be d0b4 86be 9c59 8ebe 59d0 92be
000000b0: 8e24 b7be 78fd 90be e510 89be 5f10 80be
000000c0: 8bec 9dbe c6b9 7cbe 9ede 9ebe 2139 97be
000000d0: b17f b9be f6f1 b3be 5909 7fbe e860 9fbe
000000e0: c8eb 93be 2628 a5be 347b 9abe d31e 73be
000000f0: 40c7 94be 7147 95be 03d4 94be 50c4 8abe
00000100: 2134 8cbe 4197 a2be 09e6 b6be 749f 90be
00000110: 7910 8dbe cee1 99be b1e0 97be 92ee 90be
00000120: 32ef 86be 2b3d 84be ed49 a0be 8b2a 9bbe
00000130: 091f 53be f7d2 8ebe 453d adbe dad1 8abe
00000140: 705d 94be 4ffa 94be b8ec 8dbe 2e07 86be
00000150: c43e a0be e71b 67be dac1 86be 586f 92be
00000160: 6e68 8fbe 0688 5fbe 44dd 87be 7055 7dbe
00000170: ce73 a4be b5b5 b8be 98dd 87be eb7b 9abe
00000180: 60bf abbe f8d7 90be f7f6 8bbe 0b45 b2be
00000190: f3c8 87be 2aa3 62be 0446 8cbe 5257 87be
000001a0: 22ad 11be f246 8cbe f93f aabe 817d aabe
000001b0: 255e 90be bc69 babe 1a80 a0be 875d a6be
000001c0: c1e3 75be a2db 8bbe 9e95 91be 0e1c 9bbe
000001d0: 7e80 21be 234f 6cbe 89dc 8fbe 3e35 8cbe
000001e0: 20e8 66be a94b 3ebe 82e6 94be 564e 99be
000001f0: f8da acbe dd20 8ebe c52e 85be da7e 80be
-0.22065607 -0.26552626 -0.30722246 -0.28889778 -0.28039476 -0.2623941 -0.28075033 -0.27008545
-0.30892506 -0.3316624 -0.298188 -0.24063328 -0.23477946 -0.27389324 -0.26619905 -0.23881489
-0.2578966 -0.31480366 -0.26135284 -0.21649083 -0.33037242 -0.269067 -0.3084544 -0.2959364
-0.29581916 -0.23935074 -0.27744517 -0.2729324 -0.31568262 -0.39032853 -0.28300035 -0.2767906
-0.34629485 -0.24751213 -0.3331955 -0.2661333 -0.28233948 -0.2349329 -0.28879032 -0.26054454
-0.2595773 -0.26309824 -0.27802742 -0.28674582 -0.35770077 -0.2831838 -0.26770702 -0.2501249
-0.3084453 -0.24680242 -0.31029218 -0.29535773 -0.36230233 -0.3514554 -0.2490591 -0.3112862
-0.28890824 -0.32257193 -0.30172122 -0.23742227 -0.29058266 -0.29156068 -0.29068002 -0.271029
-0.2738352 -0.31756023 -0.35722378 -0.28246653 -0.2755163 -0.30055088 -0.29663613 -0.28307015
-0.26354367 -0.25827917 -0.313064 -0.30305895 -0.20617308 -0.27895328 -0.33835807 -0.2711323
-0.28977537 -0.2909722 -0.27719665 -0.26177353 -0.31297886 -0.22569238 -0.26319772 -0.28600574
-0.2800936 -0.21829233 -0.26536 -0.24739623 -0.32119602 -0.3607613 -0.2653625 -0.30172667
-0.33544445 -0.2828977 -0.27336857 -0.348183 -0.265205 -0.22132555 -0.27397168 -0.26433808
-0.14226201 -0.27397877 -0.33251932 -0.33298877 -0.28196827 -0.36408794 -0.31347734 -0.3249323
-0.24012662 -0.27316004 -0.2843446 -0.30294842 -0.15771672 -0.23077063 -0.28097942 -0.2738437
-0.22549486 -0.1858355 -0.29082114 -0.29942578 -0.3376081 -0.27759448 -0.26012245 -0.2509678

model.encoder.conv_in.weight_quantizer_0.x_max f4 [128, 1, 1, 1]
00000000: 216d 8c3e dd67 903e d6a9 303e 394e 7f3e
00000010: 28e4 9a3e 44bc 973e fb63 8d3e 1430 863e
00000020: f887 b63e cd17 7a3e ed75 7c3e 404b 6b3e
00000030: 1a47 9e3e 4c30 9d3e 373c 943e bdbf 6f3e
00000040: aaf1 8d3e 47a8 aa3e 89e4 a93e beb4 b13e
00000050: 878e 873e ad6b a23e a7f0 793e fd06 7b3e
00000060: f385 8e3e 8218 993e 113a 7d3e 2b99 863e
00000070: 683f b03e 48bb 393e b22e cd3e dfed aa3e
00000080: 48a2 743e 3f58 8f3e c9f7 7e3e c9f5 843e
00000090: c86e 843e ca87 9d3e 9d65 823e 8d6a 9c3e
000000a0: 499c 863e 31d9 933e 1363 9a3e a18b 8b3e
000000b0: 0a50 4b3e b444 a53e fbe8 a53e ddf5 813e
000000c0: fea3 553e a650 923e b6e0 993e 3954 6d3e
000000d0: 53d5 7f3e 0c75 aa3e a1f1 773e f9eb 7b3e
000000e0: 1ccc 9e3e 1fa3 9c3e 52ff 753e 2394 a83e
000000f0: 9594 973e 0b66 893e 7628 803e 8f9f 853e
00000100: c473 a33e 778b af3e 9d8b a33e 3465 973e
00000110: 41b2 873e f311 6e3e 4759 8b3e 92ab 883e
00000120: 7374 923e b826 923e 08bc 9b3e ad00 a13e
00000130: 8d5d 8a3e 344c 843e 22e3 8c3e f7c9 7f3e
00000140: 80d6 793e 154c 843e 6a7a 6f3e 926b 863e
00000150: c083 7b3e 1d72 9b3e 8643 863e 6a3e 8e3e
00000160: 342a 813e 7bb4 923e 1dbc 9a3e 2911 9d3e
00000170: 0239 7f3e 1871 2b3e 630b d73e 6760 7e3e
00000180: dd33 913e 4143 803e b2a8 6a3e 8b7c 903e
00000190: 7ee6 833e 986f 8d3e eb28 a63e a831 913e
000001a0: d279 e13e 8043 9a3e ce89 903e 01f9 aa3e
000001b0: 4827 933e 7939 803e 8ea3 8d3e b935 843e
000001c0: 2833 8c3e 30ba 853e 6532 8b3e 82d2 873e
000001d0: 938d 453e 85f0 603e c6d1 903e 1fe7 993e
000001e0: bfb1 4e3e b6ae 833e 1908 873e e6cf 823e
000001f0: f82d 9a3e 36f5 8b3e e46e 993e 3883 8c3e
0.2742701 0.2820424 0.17252287 0.24932183 0.30252194 0.29635823 0.27615342 0.26208556
0.3565061 0.24423142 0.2465436 0.22977924 0.3091362 0.3070091 0.2895219 0.23412986
0.27723438 0.3333151 0.3318217 0.34708208 0.26475927 0.31722775 0.24408208 0.24514385
0.2783657 0.2990151 0.24729182 0.26288733 0.34423375 0.18137848 0.40074688 0.33384606
0.2389003 0.27997014 0.2489921 0.2596877 0.2586577 0.3076766 0.2546815 0.30550042
0.2629111 0.2887664 0.30153713 0.27254966 0.19854751 0.3227898 0.32404312 0.2538289
0.2086334 0.28577155 0.30054253 0.2317666 0.2498372 0.33292425 0.24213268 0.24601735
0.31015098 0.30593202 0.24023178 0.3292552 0.29605547 0.26835665 0.2503087 0.26098296
0.3192426 0.3428609 0.31942454 0.295694 0.26503184 0.23249035 0.2721655 0.26693398
0.2860447 0.28545165 0.30416894 0.31445828 0.270245 0.25839388 0.2751704 0.24979387
0.24398232 0.25839296 0.23386541 0.26253945 0.24561977 0.303605 0.2622339 0.27781993
0.2522751 0.2865332 0.30221644 0.30677155 0.2492409 0.1674236 0.42000875 0.24841462
0.2835988 0.2505131 0.22915915 0.2822002 0.2576179 0.27624202 0.32453093 0.28358197
0.44038254 0.30129623 0.28230137 0.333931 0.28740907 0.25043848 0.27663845 0.25822237
0.2738278 0.26118612 0.27186885 0.26527792 0.19292288 0.21966751 0.28285044 0.30059144
0.20184992 0.2571923 0.26373366 0.2554924 0.30113196 0.2733552 0.29967415 0.27443862

model.encoder.down.0.block.0.norm1.weight f4 [128]
00000000: 48a4 5d3f e3b5 853f b859 6f3f a204 853f
00000010: aaf1 823f 32b1 813f c0cd 7c3f 5436 7c3f
00000020: 3605 c63f e6c7 9d3f 7f12 a63f d2ee 6f3f
00000030: ab61 6b3f 3baf 7f3f f22f 843f afdc 7f3f
00000040: d42e 873f 4c6d 6b3f 7d0c 293f e2ee 4e3f
00000050: 207f 7c3f 33c8 673f 740d 853f c238 883f
00000060: 8c51 593f 525a 7d3f 2cc9 523f b3c0 733f
00000070: 7910 503f 96fd 2e3f 1ad3 6b3f 53ec 733f
00000080: 7d08 6d3f c63b 773f 7d23 933f 1b83 813f
00000090: ced4 5d3f 5e96 6f3f 0205 823f e833 6f3f
000000a0: b496 7b3f ed00 7d3f c748 903f 239f 803f
000000b0: c96d 023f bf02 823f 6db6 6b3f bd88 683f
000000c0: 642e 833f a13a 9c3f 5297 913f 8ab6 7b3f
000000d0: 0d01 833f b9d1 893f 3a34 8d3f 2fb6 803f
000000e0: cc10 873f 9bc0 8b3f e39e 863f cbd5 743f
000000f0: 6abc 833f 64df 913f 62be 863f 99ec 893f
00000100: 8f80 843f 9231 923f 4796 8f3f 9e08 843f
00000110: 4786 6d3f 4876 883f d464 823f d093 8b3f
00000120: 3ea6 7e3f 7f38 773f cc5e 823f a90d 683f
00000130: 3ecd 893f 1f32 7f3f 622f 983f bd1a 833f
00000140: 3c3b 803f 477b 8a3f 540d 803f 1e83 763f
00000150: bf9e 843f 7e3d 693f d55d 853f 479e 803f
00000160: cb3a 643f 0bac 7a3f b7f4 6b3f 5224 5c3f
00000170: 0c27 733f 57a9 2c3f a041 713f 7a29 793f
00000180: c1cf 943f 3fb6 853f c23c 723f 8061 ad3f
00000190: 2fcf 693f cae3 783f cf02 973f cc2e 613f
000001a0: a2e0 4e3f 8f85 7f3f 4d82 913f 5595 2e3f
000001b0: 44b6 813f 278b a43f 2c51 863f b2e5 8d3f
000001c0: cf0c 7f3f 5fa0 7a3f 87c3 793f 7bf0 6b3f
000001d0: 4f87 7f3f 8dfb 773f 9e96 823f 8ada 8b3f
000001e0: 38d5 883f faeb 723f 60ea 863f 8583 883f
000001f0: 38f9 8e3f 0ac3 7b3f ef79 633f 5487 763f
0.865788 1.0446132 0.93496275 1.0392039 1.023 1.0132201 0.9875145 0.985204
1.547034 1.2326629 1.2974395 0.93723786 0.91945904 0.99876755 1.0327132 0.9994611
1.0561166 0.9196365 0.6603468 0.80833256 0.9863148 0.90539855 1.039473 1.0642321
0.84890056 0.9896594 0.82338214 0.9521591 0.81275135 0.6835569 0.9211899 0.9528248
0.9259108 0.9657558 1.1495205 1.0118135 0.8665284 0.9358882 1.0157778 0.9343858
0.9827683 0.9882954 1.127221 1.0048565 0.5094877 1.0157088 0.92075235 0.90833646
1.0248532 1.2205392 1.1374304 0.9832541 1.0234696 1.0767127 1.1031563 1.0055598
1.0552001 1.0918154 1.0517238 0.9563872 1.0291874 1.1396298 1.052685 1.0775329
1.0351733 1.1421378 1.1217736 1.031513 0.92783016 1.0661097 1.018702 1.0904484
0.99472415 0.9657058 1.018518 0.90645844 1.076576 0.99685854 1.188946 1.0242535
1.0018077 1.0818871 1.0004067 0.9629382 1.0360945 0.91109455 1.041926 1.0048302
0.8915221 0.97918767 0.9217028 0.8599292 0.94981456 0.6744589 0.9424076 0.97328913
1.1625901 1.0446242 0.9462396 1.354538 0.9133176 0.9722258 1.1797732 0.8796203
0.8081151 0.9981317 1.136789 0.6819661 1.0133748 1.2854966 1.0493522 1.1085722
0.9962892 0.97900957 0.97563976 0.9216382 0.9981584 0.9686821 1.0202215 1.0926068
1.0690069 0.9489132 1.0540276 1.0665137 1.1169806 0.9834448 0.8885793 0.96300244

model.encoder.down.0.block.0.norm1.bias f4 [128]
00000000: abbf 5dbe 8bbf 5dbd 312f f9bc aa89 49bd
00000010: cdcf 0d3d e993 97bb 3737 92bd 67ca b6bd
00000020: bf33 4d3e 902b d43c eea2 113e 79af 1a3e
00000030: cc50 00be 3164 b8bc 055e 583c c6a6 05bd
00000040: 9aaa b33d 1f51 a8bd c582 9abe bfe9 fbbd
00000050: ca49 94bd b281 c13c 5df6 4bbc d96c f4ba
00000060: abc9 09be 49d7 4e3c f431 7abe 24cf c2bd
00000070: 029e 1dbe af7e c3be f72e 03be c33a b1bd
00000080: 2eb3 e3bd 4d5b 833b 34c4 483d 6112 88bd
00000090: 3221 0abe b9c1 afbd 25e7 80bd 4c36 a0bd
000000a0: c8bc 7cbc cc8a 383c 4bd5 033d dacb 4dbd
000000b0: f319 cabe c444 f03c 7eba 92bd 02df 05be
000000c0: 8c2a 19bd bbb2 c53c 1f0a 753d 4b9b e1bd
000000d0: 9a5f 10be eeba a9bd 5dba 7eba a2d6 2bbc
000000e0: 5057 8fbc c756 fe3d 18de ec3c e28f 9b3c
000000f0: b985 973c 9426 0b3e 4d3f 1fbd 1327 083d
00000100: 2e1c 113c 473d 033d c426 88bd ffee c93d
00000110: 50e8 0b3d 9ba8 2ebd f7b7 66bd 3584 c63c
00000120: 0931 9dbc 74bf cfbd b6f8 d7bc c00a e6bd
00000130: f888 e7b9 1f39 bbbd ed94 ae3d fd80 c13d
00000140: f420 883c 8b6c 083d a6c8 1abd 12ec 46bd
00000150: 4d68 dd3b f4c7 893d fe15 febb e5ec 41bd
00000160: 241b 0cbe b6d4 9dbd 5bc4 8bbd 3b67 01be
00000170: dac3 a9bd 672e 9fbe 69b7 04be 98aa 51bd
00000180: 8d18 a83d a831 c03b 39a7 b9bd e8b9 0a3e
00000190: b9ee 13bd 884d 95bd 46ae 7a3d a31a 16be
000001a0: 089d 81be 4a48 50bd b127 1f3d 20e9 8cbe
000001b0: fbad 3f3d 3b8b 7d3e 9fbb 6638 0eb7 84bc
000001c0: dc09 df3b aca2 7bbd 5b8d 7e3d b6b4 06bd
000001d0: 80b4 71bd 5f48 9cbd b368 7ebd 5ef6 c53d
000001e0: 5faf 13bc 115e 803d ecf3 0dbd 737c 92bc
000001f0: 7950 a03d 121b 3eba 6232 98bd ef9f 54bd
-0.21655147 -0.054137748 -0.03041801 -0.049203552 0.034622002 -0.0046257866 -0.07139438 -0.08925324
0.20039271 0.025899678 0.14222309 0.15106 -0.12530822 -0.022508712 0.01320601 -0.03262975
0.08772774 -0.082185976 -0.30177894 -0.12300443 -0.07240637 0.023621414 -0.012448874 -0.0018648162
-0.13455836 0.01262457 -0.24433118 -0.09512165 -0.15392306 -0.3818259 -0.12810884 -0.08653786
-0.1111816 0.0040086866 0.04901524 -0.066441305 -0.13489226 -0.085818715 -0.06294087 -0.07822856
-0.015425868 0.0112635605 0.032185834 -0.050243236 -0.39472923 0.029329665 -0.07164477 -0.13073352
-0.03739409 0.024133077 0.059824105 -0.11015948 -0.14098969 -0.08287607 -0.00097171013 -0.010488184
-0.017497689 0.12418895 0.028914496 0.018989507 0.018496381 0.13588935 -0.038878728 0.03324039
0.008856816 0.03204086 -0.06648019 0.09860038 0.034157097 -0.042641263 -0.056327786 0.024232963
-0.01918842 -0.10143939 -0.026363712 -0.11232519 -0.00044161803 -0.09141754 0.08524499 0.09448431
0.016617276 0.03330664 -0.03778901 -0.048564978 0.0067568184 0.06727591 -0.0077540865 -0.04734506
-0.13682228 -0.07706587 -0.06824561 -0.12637036 -0.08289309 -0.3109009 -0.1296059 -0.05118808
0.08207808 0.0058652945 -0.09065098 0.1354748 -0.036116336 -0.072901785 0.061201356 -0.14658599
-0.25315118 -0.05085019 0.038856212 -0.2752161 0.04679678 0.24760143 5.501101e-05 -0.016200569
0.0068065953 -0.061434433 0.062146526 -0.032887183 -0.05901003 -0.07630991 -0.062111568 0.096661314
-0.00901398 0.06267942 -0.03465645 -0.017881608 0.07827849 -0.00072519586 -0.07431485 -0.051910337

model.encoder.down.0.block.0.conv1.scale_factor f4 [1, 128, 1, 1]
00000000: ab01 f73f 6535 1940 6c33 fb3f fc54 0140
00000010: eecb 0640 373e 2940 a371 1940 c49a 1a40
00000020: 951c 5c40 5f2f 4340 8f32 4f40 fc7a 4840
00000030: 928f 3e40 7c79 1340 05e7 f33f a6c9 0740
00000040: 9128 e53f 0b1f 1f40 d83c 2440 b378 0e40
00000050: 999a 1e40 85e9 2e40 52fe 2440 28e8 2040
00000060: ca9d 1940 f858 0f40 986e 2640 3d6c ed3f
00000070: 8311 f33f 1ab9 1c40 4bf9 0740 d8b2 d03f
00000080: 62ef 4840 b2f9 3b40 33c7 2e40 f4eb 3e40
00000090: d9ae ff3f 5389 0840 f56a 0340 822b 0e40
000000a0: 3cd2 2040 a651 4340 09dc 0140 a660 1b40
000000b0: a148 1d40 9359 bf3f 292f f83f 53cd 0340
000000c0: d8d3 2440 31e8 e33f edf0 1a40 afa6 3640
000000d0: 6dc8 0f40 5e52 4740 c56b d43f 1b94 1d40
000000e0: 1cc2 3f40 964c 3640 159b 1f40 98a4 4a40
000000f0: 70f9 2840 0a99 1d40 97f0 2240 95dc 0040
00000100: fe44 5740 8042 3f40 60b6 3f40 a62b 3f40
00000110: 9c75 2540 027e f73f 4357 3d40 f3b4 2d40
00000120: c4df e33f 98c9 0840 9abc 0c40 5639 1a40
00000130: 84cf 1640 0b23 4540 aa5c 0e40 d80b 1840
00000140: becd 1c40 1c71 2540 b829 3340 83d9 f93f
00000150: 749c 0b40 47b9 1e40 a826 2040 5beb 1340
00000160: 6ce5 3140 bff3 0740 5c50 f53f 2343 2340
00000170: 32c9 cd3f 543c 1f40 b8ac 1140 a9f6 dc3f
00000180: 23e3 2d40 a196 2940 ba88 3340 c9b1 1d40
00000190: fecf 2940 af8f 0840 39ca 0e40 ecdf 1540
000001a0: a74b 2140 f3c0 bd3f eaa5 a33f c595 e43f
000001b0: cea8 1e40 dc1b 3740 8d79 2940 9673 3a40
000001c0: 1b9a 4040 61ce 2840 0726 0a40 f001 2840
000001d0: 0c74 0e40 fce6 3040 0838 2840 1521 1640
000001e0: 06c0 1340 fb13 1140 8988 2040 271a 1740
000001f0: 10fd 2c40 7122 1540 cfbe 1c40 7ad4 4040
1.9297384 2.393884 1.9625068 2.020812 2.1061969 2.6444223 2.3975608 2.4156961
3.4392445 3.0497663 3.2374609 3.1325064 2.9775128 2.3042898 1.9054877 2.1216826
1.7903005 2.4862697 2.5662136 2.226117 2.478186 2.733003 2.5780225 2.5141697
2.4002557 2.2398052 2.6005 1.8548657 1.8989719 2.4487977 2.1245906 1.6304579
3.1396108 2.9371152 2.7309082 2.9831514 1.9975234 2.1333816 2.0534031 2.2214055
2.5128317 3.0518584 2.0290549 2.427774 2.457558 1.4949211 1.9389392 2.059407
2.57543 1.7805234 2.420955 2.8539236 2.246608 3.1144023 1.6595389 2.4621646
2.9962225 2.8484244 2.4938405 3.166296 2.6402245 2.4624658 2.5459344 2.0134633
3.363586 2.9884338 2.9955063 2.987039 2.5853033 1.933533 2.958451 2.7141693
1.7802663 2.1373043 2.1990113 2.4097495 2.3564157 3.0802639 2.2244058 2.375723
2.4500575 2.5850286 2.7994213 1.9519504 2.1814241 2.4800584 2.5023594 2.31124
2.7796278 2.124252 1.9165149 2.5509727 1.6077025 2.4880571 2.276167 1.7262775
2.7169883 2.6498187 2.8052201 2.4639761 2.6533198 2.1337698 2.2310927 2.341792
2.5202425 1.4824508 1.2785008 1.7858206 2.479053 2.8610754 2.6480439 2.9133048
3.0094059 2.6375964 2.158571 2.6251183 2.225833 2.7640982 2.6284199 2.3457692
2.3085952 2.2668445 2.5083334 2.3609712 2.7029457 2.3302271 2.449146 3.0129685

model.encoder.down.0.block.0.conv1.offset f4 [1, 128, 1, 1]
00000000: 422e 553c 6b1f 50bc aa96 5dbc c94a 04bc
00000010: 3503 683c 62d7 453c e1d8 1c3c ed39 523c
00000020: 47fc cd39 792c 47bc 31a4 443c 45c2 543c
00000030: 15d1 4f3c 3e91 3dbc b18b 34bc 6a7a 47bc
00000040: 9106 133c 22ba 13bc f5cc 0fbc 6895 41bc
00000050: bd5b 023c c2d2 89bb b88e 83bc 98a8 513c
00000060: a701 63bc edb8 47bc 6056 50bc 4032 513c
00000070: 3550 01bc 715c 613c 20a6 63bc 0895 46bc
00000080: 36fc 3ebc 45e4 623c 1461 bfbb 77fc 66bc
00000090: d64e 52bc 63da b73a 4abf 393c 7e4f 263c
000000a0: 2e90 a83b c2e2 3abc b0e9 633c b118 363c
000000b0: f36c 383c a92f 4a3c 4698 493c 5400 65bc
000000c0: 6ae6 89bc 63a3 50bc 9757 2bbc a3f8 41bc
000000d0: 90ab 283c 6ca8 8b3c d418 5abc 71b4 383c
000000e0: b04f 2bbc 3ccf 523c cecd 54bc eb9d 4b3c
000000f0: b62e 283c aa7e 823c dfaf 2c3c 5972 47bc
00000100: 6536 30bc 4d9d a13b 5cee 48bc e1e6 393c
00000110: dc94 53bc 4cd3 2fbc 6ef2 c33b 1ab4 363c
00000120: cb5e 66bc 38b2 7c3c 33e1 49bc abb4 683c
00000130: 7dcd 483c 70b2 323c c435 483c 10a6 593c
00000140: 9ceb 4c3c 4be2 34bc c0b4 4abc 15f2 053c
00000150: 2968 3e3c 0547 4d3c 1b93 443c 102c feba
00000160: 9fa0 3d3c b6f5 533c 1556 67bc 3d12 403c
00000170: 0917 093c b4a5 7d3b 2499 4d3c e1cf 48bc
00000180: 234c 40bc 0520 64bc a81e 293c 925e c73b
00000190: 9d49 4bbc 3964 29bc 4841 68bc d7ef 37bc
000001a0: 0a24 49bc 0f7c 4f3c 9de8 3f3b b668 503c
000001b0: 1228 703c 21f9 b43b a7d1 12bc 3d9b c5bb
000001c0: 696a f5bb d13e 513c f515 453c 1580 bf3b
000001d0: 6bbb 4b3c 9158 233c 5553 283c 25ba 5f3c
000001e0: bc14 3c3c 543b 3b3c f182 fdbb ff90 1d3c
000001f0: 4f49 853c 4da6 4d3c 3370 4fbc 1f10 693b
0.013011517 -0.012702803 -0.013524691 -0.008074471 0.014160921 0.012075277 0.009573192 0.012831193
0.00039288608 -0.012156599 0.012002037 0.012985771 0.012684126 -0.011570273 -0.011019633 -0.012175182
0.0089737335 -0.0090165455 -0.008776893 -0.011815406 0.007956442 -0.0042060325 -0.016059265 0.012796544
-0.013855374 -0.012190086 -0.012715906 0.012768328 -0.007892658 0.01375495 -0.013894588 -0.012120493
-0.011656811 0.013848369 -0.00584043 -0.014098278 -0.012836179 0.0014026876 0.011337111 0.010150788
0.0051441407 -0.011406602 0.013910696 0.011114285 0.011256444 0.012340465 0.012304371 -0.013977129
-0.016833503 -0.012734267 -0.010457895 -0.011839065 0.01029481 0.017048083 -0.013311584 0.011273489
-0.010456011 0.012866791 -0.012988521 0.012427787 0.010265043 0.015929539 0.010539978 -0.012173259
-0.010755156 0.004932082 -0.012263861 0.01134655 -0.012913909 -0.010731529 0.0059798276 0.011151338
-0.014060686 0.01542335 -0.012321758 0.014203231 0.0122560235 0.010906801 0.01221985 0.013284221
0.0125073455 -0.011040281 -0.012372196 0.008175393 0.011621513 0.012529139 0.011997963 -0.0019391794
0.01157394 0.012937 -0.014119645 0.011723098 0.008367308 0.0038703503 0.012548719 -0.012256593
-0.011736902 -0.01392365 0.01032225 0.0060842717 -0.0124076875 -0.010338836 -0.0141757205 -0.011226616
-0.012276659 0.012663855 0.0029282935 0.0127202775 0.014657991 0.0055228625 -0.008961118 -0.0060304687
-0.0074894917 0.012771324 0.012029161 0.005844126 0.012434821 0.009969846 0.010273774 0.01365522
0.011479553 0.011427719 -0.0077365567 0.009617089 0.016270308 0.012551856 -0.012661028 0.0035562587

model.encoder.down.0.block.0.conv1.weight_quantizer_0.x_min f4 [128, 1, 1, 1]
00000000: 004b 10bf bcf5 afbe 2ef2 91bf 4dc7 d2be
00000010: d0ee a7be a73b 08bf b395 c6be 4390 00bf
00000020: 1dab dabe a907 d3be 46f3 cdbe b136 66bf
00000030: 79c2 8fbe b3ec 43bf 0e43 3cbf 1eba 8abe
00000040: 701a 2dbf a2a5 d0be 9c44 febe e0ba c8be
00000050: eba7 d2be d255 68be 388c efbe 3cc6 afbe
00000060: 71b9 83be e160 67be 9225 b5be ad51 81be
00000070: 6b07 bebe 3fff 9ebe 9e4f 89be 2c78 c5be
00000080: bed9 9bbe 2755 95bf 482e 65bf a507 b8be
00000090: 141d 53bf b418 2bbf 0ea9 35bf bc55 92be
000000a0: 0d4b adbe 541d 3abf 0db0 f4be 6f14 85bf
000000b0: fc62 3abf 25b5 b4be a013 59bf 6686 eebe
000000c0: 2016 88be 54d6 91be 4c95 b0be 09a7 34bf
000000d0: 2e72 a1be a2c8 abbe 0dde a4be c4a5 5abe
000000e0: a4ff 38bf 52cf 7cbe 8f77 aabe 3fe2 f0be
000000f0: 210e 1bbf a281 01bf c7f4 76bf 6b5d fbbe
00000100: 5b59 34bf 9e27 b9be 9207 39bf fe8c c5be
00000110: 8ef8 a2be 0f0e b2be a64b e4be 3d89 f0be
00000120: 941c e9be 3d02 e1be 2dd5 a9be b059 65bf
00000130: 9a2b 17bf 2217 d5be 5247 b2be a23a cbbe
00000140: f9a6 f0be 9709 cfbe 9646 6ebe f4fb 43bf
00000150: eb66 f6be 2006 83be e8d3 4cbf 37a7 cebe
00000160: 7d93 bbbe 0e4c f3be 33b2 a9be edca dabe
00000170: 896d 37bf 5f98 a4be 465d d3be 068f e8be
00000180: 4146 f9be 112a 02bf e5e7 a9be 44ce 15bf
00000190: 5fd2 2dbf fedc 18bf 3fe3 a3be ceea 4bbf
000001a0: f977 5cbf 6c3e c4be 5319 aabe 1e98 cebe
000001b0: 866d babe 3dd4 86be 564e 7bbe 29f3 8abe
000001c0: d6a9 04bf 2e7b 77bf a56f 86bf 3a85 bcbe
000001d0: 4add aabe 62b8 33bf fe7b 94be 2162 22bf
000001e0: 701a 1cbf 1c92 50bf bc63 d8be 07ed b9be
000001f0: 688c 0bbf 7dcc 6dbf a86c 92be c890 93be
-0.5636444 -0.34367168 -1.1402032 -0.4116768 -0.32799387 -0.5321602 -0.38786086 -0.50220126
-0.42708674 -0.41216782 -0.40224665 -0.899272 -0.28078058 -0.7653305 -0.7353982 -0.2709512
-0.67618465 -0.40751368 -0.4966172 -0.39205074 -0.41143736 -0.22688988 -0.46786666 -0.34330928
-0.25727418 -0.2259555 -0.35380226 -0.25257626 -0.37115034 -0.31054112 -0.26818556 -0.38568246
-0.30439562 -1.1666611 -0.89523745 -0.35943332 -0.82466245 -0.6683457 -0.7096108 -0.28581035
-0.33846322 -0.72701 -0.47790566 -1.0396861 -0.7280729 -0.35294452 -0.8479557 -0.46586913
-0.2657938 -0.28483832 -0.34488904 -0.70567375 -0.31532425 -0.33551508 -0.3220066 -0.21352297
-0.72265077 -0.24688461 -0.3329434 -0.47047612 -0.60568434 -0.5058843 -0.9646725 -0.4909471
-0.70448846 -0.36163038 -0.72277176 -0.3858413 -0.31830257 -0.3477635 -0.44588965 -0.46979704
-0.45529616 -0.4394702 -0.33170453 -0.8958998 -0.59050906 -0.4161921 -0.34820038 -0.3969317
-0.4700239 -0.40437004 -0.23269114 -0.76556325 -0.48125395 -0.2559061 -0.80010843 -0.4036195
-0.36635962 -0.47518963 -0.33143768 -0.42732945 -0.7165151 -0.321475 -0.412821 -0.45421618
-0.48686412 -0.5084544 -0.33184734 -0.5851786 -0.67899126 -0.5971221 -0.32009313 -0.7965516
-0.86120564 -0.38328874 -0.33222446 -0.4035043 -0.36411685 -0.263338 -0.24541602 -0.2713864
-0.5182165 -0.9667233 -1.0502821 -0.36820394 -0.33371955 -0.7020322 -0.2900085 -0.6343098
-0.6097784 -0.81472945 -0.4226359 -0.3631365 -0.5451112 -0.9289015 -0.28598523 -0.28821397

model.encoder.down.0.block.0.conv1.weight_quantizer_0.x_max f4 [128, 1, 1, 1]
00000000: 5924 833e 1ff5 833e 5e7f c13e 6131 8b3e
00000010: 96ea 843e 8cb3 b83e c5e3 833e aab4 853e
00000020: 1258 ad3e 3617 9d3e 111b 973e d530 f33e
00000030: 0aa7 913e 0379 b43e 3d21 aa3e 4928 ba3e
00000040: 4219 663e 0491 923e b83a 893e 9f26 513e
00000050: be87 783e 7c19 7b3e 88f8 d03e eb62 8a3e
00000060: 34d4 af3e 7ea2 663e ee16 923e 8153 273e
00000070: 368e 863e 1156 ab3e 819d 653e 296f 763e
00000080: fa4e 783e c9a3 843e d0c2 c03e a181 3d3e
00000090: 4069 393e 2e82 a43e b83f bb3e dc61 863e
000000a0: 3637 cd3e 22df 923e 9a46 9f3e c822 733e
000000b0: a6a0 ac3e d4f5 633e 7558 9d3e 638e b13e
000000c0: b3b0 893e 78da 573e 07a6 8b3e 39cf be3e
000000d0: 174b 8f3e 52eb aa3e 3816 a03e 2faf 5e3e
000000e0: 2a97 9a3e fea9 973e 39e9 8b3e 3977 953e
000000f0: 19cb d93e 8639 b33e ee82 8a3e 38d3 893e
00000100: 11c2 8f3e 78b0 613e acff 933e 51fe 7a3e
00000110: ecff 593e 03a7 783e d2e6 a13e fbf3 783e
00000120: 5383 733e c044 bb3e 404b c43e 41a4 cb3e
00000130: bb20 8b3e f151 823e 873f 9e3e 55ef 9b3e
00000140: d410 993e 6cf2 833e 0820 b93e f3ad a13e
00000150: e715 943e 8fc8 3d3e 64d1 683e b0b3 a13e
00000160: 5af5 943e 107b a23e 1e0b ec3e 5585 d63e
00000170: 42d5 7d3e 9acd 853e 4ed8 563e 4c4b 953e
00000180: 533f 8d3e 4e9c aa3e 4b8c 9d3e ed73 9a3e
00000190: cd26 aa3e 8dd9 943e a3cc 873e f4e9 b83e
000001a0: d5aa 803e f016 7b3e cfe2 8c3e 5a9b bb3e
000001b0: af32 8e3e 18a9 993e ea44 803e 2b26 843e
000001c0: 19cf 9f3e 0736 c43e 6d97 513e 9587 873e
000001d0: 1101 883e d3af 543e ea93 7f3e 363a ec3e
000001e0: f02e 973e 3931 af3e c470 923e 9b87 953e
000001f0: 088d c33e 3455 963e f1dc 8a3e 80c4 913e
0.2561367 0.2577295 0.37792486 0.2718611 0.25960225 0.36074483 0.25759712 0.26114398
0.33856255 0.3068177 0.29512838 0.47498193 0.28447753 0.35248575 0.33228484 0.3635886
0.22470573 0.28626263 0.2680261 0.20424889 0.24270532 0.2452144 0.40814614 0.27028593
0.34341586 0.22522923 0.2853312 0.16340448 0.26280373 0.334641 0.22423364 0.24065842
0.24248877 0.25906208 0.3764863 0.18506481 0.18106556 0.3213057 0.3657205 0.26246536
0.40081185 0.28685862 0.31108552 0.23743737 0.33716315 0.22261745 0.3073155 0.34678945
0.26892623 0.21079433 0.27275106 0.37267473 0.27986977 0.3338266 0.31266952 0.21746515
0.30193454 0.2962188 0.27326372 0.29192522 0.42537764 0.35004824 0.27053016 0.2691896
0.28077748 0.22039974 0.28906 0.24511077 0.21289033 0.2428246 0.31621414 0.24311821
0.23780565 0.3657589 0.3833866 0.39773753 0.2717341 0.2545314 0.30907843 0.30456033
0.2989565 0.2577089 0.3615725 0.31578025 0.2892296 0.18533538 0.22736126 0.31582403
0.29093438 0.31734514 0.46102232 0.418986 0.24788383 0.26133424 0.20980951 0.2915901
0.27587375 0.33322376 0.30771098 0.3016657 0.33232728 0.29072228 0.26523313 0.36115992
0.25130334 0.24520469 0.2751679 0.3664196 0.27773044 0.3001182 0.25052577 0.2581037
0.3121269 0.3832247 0.2046792 0.26470628 0.26563314 0.20770197 0.24958768 0.4613816
0.29527998 0.3421724 0.28601658 0.2920502 0.38193536 0.2936188 0.2712169 0.2847023

model.encoder.down.0.block.0.norm2.weight f4 [128]
00000000: 07f7 333f 74ff 603f 33cc 5e3f 7b4e 553f
00000010: 9836 493f 4bd1 a23f 44a4 4e3f ea86 743f
00000020: 9f66 6c3f 265c 6b3f 7c18 5c3f 4ae7 8a3f
00000030: c101 5d3f 9efc 5c3f de5a 643f cd0b 2d3f
00000040: 4000 2e3f 49f6 553f 38d1 4c3f 1ab0 4a3f
00000050: 592a 733f 8f50 513f 3e3c 803f 397a 4b3f
00000060: 0961 573f 970e 5a3f fcff 8a3f 553c 543f
00000070: d44b 543f 962a 933f e461 613f 73ff 1b3f
00000080: 0955 493f 277d 893f a85c 883f 0b01 473f
00000090: f12e 443f 0457 4e3f fe65 503f ad62 523f
000000a0: a395 543f fb4c 803f b215 7e3f c3fa 9a3f
000000b0: b724 653f 076a 423f 676d 733f 26c6 6f3f
000000c0: 9746 503f 90ca 733f 67ee 0e3f 0780 913f
000000d0: 984c 493f 13a6 283f a09a 903f 9caf 743f
000000e0: 39f7 5d3f 0d86 413f d889 723f 25ef 8e3f
000000f0: 0155 9e3f f0df 883f d259 883f cc74 933f
00000100: 975e 423f 6e76 3d3f 2399 833f c3e1 2a3f
00000110: 52fe 3e3f a58a 3f3f 7c3f 893f 786c 6a3f
00000120: 03a3 6d3f 3977 8f3f 13fb 583f fa8d 533f
00000130: a731 6e3f 0a2e 313f dcda 403f 5f63 883f
00000140: 4995 463f f2bc 333f a282 743f 1828 6b3f
00000150: 004c 773f b12f 433f 67b8 d93f b2a4 6f3f
00000160: d407 3a3f e879 383f 7209 2b3f 5ba5 5d3f
00000170: 6362 663f f80f 343f a543 453f 5b99 633f
00000180: 0d3e 6f3f 5d53 843f a31e 533f f2f2 993f
00000190: 3b15 893f 4532 7f3f 0fc5 473f 4075 813f
000001a0: 0479 a53f d592 683f 4658 4b3f 3e4f 683f
000001b0: 5d39 873f 2768 5a3f fe65 553f d120 593f
000001c0: a5fe 713f cdcd 313f 165c 943f 8069 4d3f
000001d0: f22a 1e3f 7e6e 7d3f 3fa1 7b3f 3382 973f
000001e0: 98a0 7a3f 8e5c cd3f 1925 653f 47e3 503f
000001f0: 7728 813f 989f 973f a61c 473f 1fb0 693f
0.7029881 0.8788979 0.87030333 0.83322877 0.7859893 1.2720121 0.807194 0.9551836
0.9234409 0.9193748 0.8597486 1.0851834 0.863308 0.86322963 0.8920115 0.6759613
0.6796913 0.83578926 0.8000674 0.7917496 0.9498649 0.8176355 1.0018384 0.7948337
0.8413244 0.8517851 1.085937 0.8290456 0.82928205 1.1497371 0.88039994 0.6093666
0.7864538 1.0741318 1.0653276 0.77735966 0.76634127 0.80601525 0.8140563 0.8218182
0.8304083 1.0023493 0.99251854 1.2107776 0.8950915 0.75943035 0.9508881 0.93661726
0.8135771 0.9523096 0.55832523 1.1367196 0.786325 0.6587841 1.1297188 0.9558046
0.86705357 0.7559517 0.9474158 1.1166731 1.2369691 1.069334 1.0652411 1.1520019
0.7592558 0.74008834 1.0281109 0.66750735 0.7460681 0.7482093 1.0722499 0.9157176
0.9282686 1.1208259 0.8475811 0.82638514 0.93044513 0.69210875 0.7533395 1.0655326
0.7757154 0.7021018 0.9551183 0.91858053 0.9660034 0.76244646 1.70094 0.9361068
0.72668195 0.72061014 0.6681129 0.8658044 0.89993876 0.70336866 0.7705634 0.88905877
0.93454057 1.033794 0.8246862 1.2027266 1.0709604 0.9968608 0.7803506 1.0113907
1.2927556 0.9084905 0.7943157 0.90745914 1.0564381 0.85315174 0.8335875 0.848157
0.9452918 0.6945465 1.1590602 0.80239105 0.6178428 0.9899672 0.98292917 1.1836609
0.97901297 1.604387 0.8950973 0.815968 1.0090474 1.1845579 0.7777809 0.91284364

model.encoder.down.0.block.0.norm2.bias f4 [128]
00000000: cb40 51be ad69 e9bd b3de 31be aa04 0cbe
00000010: a116 63be 5e0c ee3c 0481 5ebe 88cd 51be
00000020: 35fb 88be 1635 55be c82e 95be 316f e23c
00000030: eeb0 e6bd 3592 7ebe d00b 8ebc 7109 35be
00000040: 6522 4cbe 368a cbbd ba24 67bd 18da c9bd
00000050: 1023 71bd 1d6d b9bd 9991 febc b8c2 4abe
00000060: 4138 72bd d25a f8bd 69c1 d3bb cf69 19be
00000070: f446 7abe 4ae1 a5bd fb70 97bd 0f69 c1be
00000080: 53a5 54be b615 1bbe bea9 77be a136 73be
00000090: 393c 4ebe c5e8 d5bd 6ac3 57be 5125 d7bd
000000a0: 95eb 04be 60ad 96bd 1682 95be 8f28 36be
000000b0: baa8 68be 2b54 f4bc c147 63bd 45d7 90be
000000c0: 3489 f6bd f036 8dbd 9ebf e2be 4a8c b8bc
000000d0: 9724 b8bd 4ef5 d1be 618c 8dbc 064a 10bd
000000e0: e850 88be fe9b 6dbe 1760 1dbd b2bd 0abb
000000f0: 94a9 c63d 9f4e 1ebe c45c 8ebd 97ab 0dbe
00000100: f83c a0be 67e4 cabc ec97 05be 66a2 84be
00000110: d466 74be 5e78 6bbe 08ec d0bc 497b 87bd
00000120: 4aa4 c2bd f0be 6cb9 0c78 1fbe 50db 78be
00000130: 4c94 2ebc e5f5 a0be 74ac 88be 8a7e 82bd
00000140: fa07 8dbe 09ae 99be 2d30 9f3c ccf1 03be
00000150: 0b5e dbbd 9ee0 1abe 0807 6c3d fab4 22be
00000160: f5f7 02be 4aa9 41be 591d 8dbe 9766 c0bd
00000170: 86cd bcbd a5bc 74be 6eb9 29be f8cc 0ebd
00000180: 8f8c 62be 4fb5 b8be f690 95be 7906 00bd
00000190: 873b 7dbe 11e5 77be 191c b1be 4651 01bd
000001a0: c352 eabd 8233 9bbc 4d5b c7be 70d5 8abe
000001b0: dcb1 82bc b980 8dbd 7751 19be 2153 2abe
000001c0: 5db5 2dbe 614b b6be e371 0fbd 47ff 67be
000001d0: 878d b5be 8522 84bd 5059 8fbd abb3 853b
000001e0: 7113 86be 8317 1a3d 1264 8bbe 15d4 08be
000001f0: 55fe 563c d6ec edbd 201f 65be 7cd6 1cbe
-0.20434873 -0.11397109 -0.1737011 -0.13673654 -0.22176601 0.029058632 -0.21728903 -0.2048856
-0.26754156 -0.20821032 -0.29137254 0.02764091 -0.112642154 -0.24860461 -0.017339617 -0.17679383
-0.19934995 -0.09938471 -0.05643151 -0.09856051 -0.05887133 -0.09054015 -0.031075286 -0.19800842
-0.05913568 -0.121266976 -0.0064622653 -0.14981769 -0.24441129 -0.08099611 -0.07394596 -0.37775466
-0.20766191 -0.15145001 -0.24185845 -0.23751308 -0.2014016 -0.10444788 -0.21070638 -0.105051644
-0.12980492 -0.073572874 -0.2920081 -0.1778891 -0.22720614 -0.02982529 -0.05548835 -0.28289238
-0.12037888 -0.06895244 -0.44286817 -0.022527833 -0.08991354 -0.41007465 -0.017278852 -0.035226844
-0.26624227 -0.23204038 -0.038421717 -0.0021170196 0.09700313 -0.15459679 -0.069512874 -0.13834988
-0.31296515 -0.024767114 -0.13046235 -0.2590515 -0.23867351 -0.22995135 -0.025503173 -0.06615312
-0.09503992 -0.00022577844 -0.15573138 -0.24302411 -0.010655474 -0.31437603 -0.2669407 -0.06371792
-0.27545148 -0.3001559 0.019432152 -0.12885207 -0.10711297 -0.15124747 0.057623893 -0.1588935
-0.127899 -0.18912235 -0.27561453 -0.093945675 -0.09218888 -0.23900087 -0.16574642 -0.034863442
-0.22123931 -0.36075827 -0.2921216 -0.031256173 -0.24729739 -0.24208476 -0.3459175 -0.03157165
-0.11441567 -0.01894546 -0.38936844 -0.27115965 -0.01595395 -0.069093175 -0.14972483 -0.16633274
-0.16963716 -0.35604385 -0.03502072 -0.22655974 -0.3545954 -0.064518966 -0.06999457 0.004080256
-0.26186708 0.03762008 -0.27224785 -0.13362153 0.013122161 -0.116174385 -0.22375154 -0.15316194

model.encoder.down.0.block.0.conv2.scale_factor f4 [1, 128, 1, 1]
00000000: 8969 1840 1aab 1c40 6e84 2240 d266 0c40
00000010: 331d 3040 1eec 0340 1577 2f40 2413 1f40
00000020: 69a3 f83f faba 0e40 0c8f 1540 6a9d aa3f
00000030: 2c1f 2b40 49a9 2840 16df 3240 0bb7 2a40
00000040: b1a9 fd3f e8fd 3b40 8df0 2c40 e49b 0640
00000050: 2ebb 2840 1ff8 0e40 e20a 0d40 4926 2c40
00000060: 5181 0340 350d 2940 5e03 0240 ff35 0b40
00000070: b951 ef3f 7a5a 0c40 8be1 ee3f 2d9e e73f
00000080: 8ed3 2d40 4335 0b40 3a1c 0d40 1762 1040
00000090: 8fb6 c03f f2a2 1e40 01aa 2f40 062f ff3f
000000a0: 3570 6440 e19b 4440 a4bf 1d40 4a97 1340
000000b0: a531 1340 6962 2340 5ee4 6440 0173 4540
000000c0: af56 f63f d68f f33f 3613 0040 2eb7 0f40
000000d0: 6b47 0340 e310 1840 0fcb e63f 9eda 0440
000000e0: 4add 3140 faa8 1f40 084f 2340 a7a4 1f40
000000f0: 6ee8 3640 95fd 0e40 fd2d 1840 ca7c ea3f
00000100: 09a6 0b40 55c3 1d40 af36 2640 0e2c ea3f
00000110: f120 0e40 2e28 dd3f 3484 ed3f 7bd6 ee3f
00000120: 9368 0040 deac ec3f 8e8f 2040 895c 2840
00000130: f178 2640 4b78 e83f bee4 2140 4ab0 0340
00000140: 17d6 1940 54a8 0140 b480 0c40 af49 3340
00000150: dc2f 1b40 d005 fc3f a6d5 a13f 36dc 4640
00000160: 0e4d 2440 8724 4940 4cd8 7a40 4d19 5240
00000170: 7086 fc3f 89ec 2c40 5678 0840 3fb9 1840
00000180: 24e7 f63f 2933 0f40 d3d0 1e40 237f 0840
00000190: 45aa 2140 0a08 0740 80e1 2640 8965 2a40
000001a0: a12f f63f 0323 2540 ccb8 1e40 00df 2a40
000001b0: d215 f53f bd7c 0640 9137 1840 82a2 0740
000001c0: 13c7 0c40 1c0d 1f40 e985 1240 6315 1440
000001d0: ccf0 1140 f97f cd3f 9581 0a40 6c43 1640
000001e0: bd85 2540 4d30 1140 b26a 4440 bcf0 3440
000001f0: 349c 5e40 fe4c 0d40 d59d 0f40 781f 2440
2.3814414 2.4479432 2.5393329 2.1937757 2.7517822 2.0612864 2.7416432 2.4855433
1.9424869 2.2301621 2.336856 1.3329289 2.6737776 2.6353323 2.794866 2.667422
1.9817411 2.9373722 2.702182 2.1032648 2.6364245 2.233894 2.2037892 2.6898367
2.0547678 2.641431 2.0314555 2.1751707 1.8696815 2.1930223 1.866258 1.8095146
2.7160373 2.1751258 2.2048478 2.255987 1.5055712 2.4786954 2.7447512 1.9936225
3.5693486 3.072014 2.4648218 2.306109 2.299905 2.5528815 3.5764384 3.0851443
1.9245204 1.902827 2.0011725 2.2455554 2.051234 2.3760307 1.8030719 2.0758433
2.7791314 2.4946885 2.5516987 2.4944246 2.8579364 2.2342274 2.377807 1.8319333
2.182009 2.4650471 2.5970876 1.8294694 2.2207606 1.7277887 1.855597 1.8659204
2.0063827 1.8490255 2.508762 2.630648 2.6011317 1.816171 2.5295863 2.0576348
2.403692 2.025899 2.1953554 2.8013723 2.424796 1.9689274 1.2643325 3.1071906
2.567203 3.1428545 3.9194517 3.2827942 1.9728527 2.701937 2.1323447 2.3863065
1.9289289 2.2374976 2.4814956 2.1327598 2.5260174 2.1098657 2.6075134 2.6624472
1.9233285 2.580262 2.480029 2.6698608 1.9147284 2.1013634 2.3783915 2.1192937
2.1996505 2.4851751 2.2894232 2.3138053 2.280322 1.6054679 2.164159 2.347865
2.5862877 2.268573 3.0690122 2.8271933 3.478284 2.2078242 2.2440083 2.5644207

model.encoder.down.0.block.0.conv2.offset f4 [1, 128, 1, 1]
00000000: 766c 433c b2e1 f83b 6832 583c 5c7d 4ebc
00000010: 084d 42bc a31a 52bc 2990 5bbc ef78 10bc
00000020: d95d 12bc d585 26bc e73a 26bc 24a3 3fbc
00000030: 0f16 4dbc 6fd6 32bc 6f30 3fbc a22d 5e3c
00000040: bcf3 0b3c 7e9b 55bc 09f9 3cbc e368 243c
00000050: 18bb 413c c03c 89ba 95c9 42bc 0b03 403c
00000060: e285 453c c652 4fbc 0e0c 2dbc 689c d33b
00000070: d1fd 8d3b 1a0f 373c 5a06 d93b 7eb4 283c
00000080: 80eb 3d3c 9ae4 fe3b cbe6 3e3c 7602 1c3c
00000090: 1d71 35bc 7c7c 42bc c913 313c ad44 e2bb
000000a0: f9f2 2f3c 1f39 253c 751a 71bc 3e53 42bb
000000b0: 22b0 623c 5429 23bc f17d 2c3c a4b1 3fbc
000000c0: 446c 46bc f130 24bc c175 57bc 42fb 48bc
000000d0: d2cf 2fbc 0524 413c 2610 423c fbdb 34bc
000000e0: 18de 4e3c fef3 62bc 21ca 37bc 2128 41bc
000000f0: 3234 3e3c 5bab 5e3c 0794 453c bca1 54bc
00000100: 8072 173c c2c2 493c 143e 24bc 1f55 2e3c
00000110: 0697 393c 189f 34bc bcd6 3abc dc65 5dbc
00000120: 3e98 62bc 4766 39bc ef96 40bc a9b9 87bc
00000130: 7fb7 2d3c 60c7 443c ba13 2eba 657c 62bc
00000140: d0b2 423c 12bf 373c bcb7 32bc 1744 c9bb
00000150: 1791 613c fe1c 3fbc 06c7 3c3c be4a 0d3c
00000160: 9665 0ebc b649 663c 7c58 4e3c d80c 32bc
00000170: 0dcd 173c d643 d83b 73ac 4b3c b4d1 503c
00000180: c303 3abc 2168 94bb b785 82bc 6bed 30bc
00000190: fc3c 563c e173 493c be6a 12bc df2a 38bc
000001a0: f60f b43b 3c78 123c bfd9 3e3c 0016 22bc
000001b0: fa40 2fbc 98cb 513c 8d66 4ebc 9990 59bc
000001c0: 1f4d 513c 73ca 433c 0f40 413c 9fe0 32bc
000001d0: 5fc8 43bc 0fe3 3bbc 1278 5c3c a557 fbbb
000001e0: 2c4c 283c a079 413c 91d9 0fbc 6f97 3abc
000001f0: aec3 493c 27fc 573c 435d 64b9 4149 27bc
0.011927715 0.0075952644 0.013195612 -0.01260313 -0.011859186 -0.0128237335 -0.01340107 -0.008817895
-0.008933508 -0.010163744 -0.010145879 -0.011696611 -0.012517466 -0.010915383 -0.011669262 0.013560684
0.0085419975 -0.0130375605 -0.011533984 0.010034773 0.011824392 -0.0010470375 -0.011888881 0.0117194755
0.012055846 -0.012654012 -0.010561956 0.006457854 0.004333236 0.011173034 0.0066230716 0.010296939
0.011591792 0.0077787163 0.011651705 0.009522071 -0.011074332 -0.0118705 0.01080794 -0.0069051594
0.010739082 0.0100844195 -0.0147157805 -0.0029651667 0.013835939 -0.009958584 0.010528074 -0.011700068
-0.0121107735 -0.010021434 -0.013150633 -0.012266936 -0.010730701 0.011788373 0.01184467 -0.011038776
0.012626193 -0.013852118 -0.011217625 -0.011789353 0.011609124 0.013590659 0.012059218 -0.012978014
0.0092436075 0.0123145 -0.010024566 0.010640412 0.011327511 -0.011024259 -0.011403736 -0.013513055
-0.013830243 -0.011315889 -0.011754735 -0.016568022 0.010602831 0.012010425 -0.0006640513 -0.013823603
0.011883453 0.011214988 -0.0109080635 -0.00614215 0.013767502 -0.011664627 0.01152206 0.008623777
-0.008691212 0.01405566 0.0125943385 -0.01086732 0.0092651965 0.0065998835 0.012431252 0.01274531
-0.011353436 -0.0045290147 -0.0159329 -0.010798792 0.013076063 0.012295694 -0.008936582 -0.01124069
0.0054950668 0.008939799 0.011648594 -0.0098929405 -0.010696644 0.012804888 -0.012597692 -0.013279104
0.012774735 0.011950123 0.011795058 -0.010917812 -0.011949628 -0.011467709 0.013456361 -0.00767036
0.010272067 0.011808783 -0.008779899 -0.011388644 0.01231472 0.013182676 -0.00021778517 -0.010210336

model.encoder.down.0.block.0.conv2.weight_quantizer_0.x_min f4 [128, 1, 1, 1]
00000000: 861d 1cbe 9864 c0be 633e 94be b207 3ebe
00000010: 3cda 83be c244 b5be 9383 b4be cc85 99be
00000020: 3095 9bbe 171d c0be 9504 9bbe aa89 65be
00000030: ea0e e6be f1b6 babe f4be 61be 581b 3bbe
00000040: 0273 83be c0d6 aebe 2052 a1be ebba 82be
00000050: ab52 cebe 5486 90be 9b3a 62be 1a05 90be
00000060: bcb4 80be 80fc c5be 8dd9 99be 3c63 0ebf
00000070: 8b6d 4ebe a1c4 58be 4b3d 60be a1ff 5abe
00000080: 2ec9 82be ca5c 5bbe c780 d0be ee53 afbe
00000090: 7ff7 6fbe 6b6f 71be 0d74 b8be c8cd 76be
000000a0: 6a5f b8be 3d47 84be b61e c3be 3762 90be
000000b0: c1d2 44be 04e4 cebe 25ad 4dbe 384e 33be
000000c0: e102 05bf 550f e7be 8375 9cbe efd8 61be
000000d0: 11b5 54be 7645 84be bafc 83be 45c7 85be
000000e0: df30 d6be cfb4 c1be 49dc 7dbe 0220 cbbe
000000f0: c811 a2be c188 b9be da02 5fbe 35b7 88be
00000100: 4381 a6be 591b 8dbe a004 b6be 8fc5 a3be
00000110: 81ae 93be 27d8 adbe c6bf 93be ab98 6dbe
00000120: 22ba 94be d8bd 8abe cbe6 b0be 7cff 17be
00000130: 64a7 c6be 3b25 90be 7e45 77be 09ea bdbe
00000140: 3a46 9abe ee12 84be 7447 bdbe 7d43 aebe
00000150: 85ef 85be 3393 38be 1999 cfbe 260a 85be
00000160: 82a5 0bbe 69ec debe 637c c0be e836 4bbe
00000170: 6b26 a5be 1c03 6cbe 8d29 40be fc8b 90be
00000180: 2c71 89be 94e4 abbe 88e2 84be 44d4 9abe
00000190: 9d38 43be 3d98 8bbe 1a24 a2be c128 a4be
000001a0: aa53 80be 249d 80be 00df 91be 2528 2cbe
000001b0: 483d 71be 8abc 87be 6e39 78be 8e2b 94be
000001c0: 507d ccbe 0bcb afbe 070e 6cbe 618f e3be
000001d0: 1ad6 a3be 5417 c3be 0043 aebe b83d 88be
000001e0: 61d0 93be db21 86be 4096 9fbe a0ef bdbe
000001f0: 52e8 99be 3f69 8cbe 761e 88be 1338 4cbe
-0.15245637 -0.37576747 -0.28953847 -0.18557623 -0.25752437 -0.3540402 -0.35256633 -0.2998489
-0.3038726 -0.37522194 -0.30276933 -0.22415796 -0.44933254 -0.36467698 -0.22045499 -0.1827215
-0.25673681 -0.34148216 -0.3150797 -0.25533232 -0.40297446 -0.28227484 -0.22092669 -0.28128892
-0.2513789 -0.38669205 -0.3004879 -0.5562017 -0.20158975 -0.21168758 -0.21898381 -0.21386577
-0.25544113 -0.21422115 -0.4072325 -0.3424372 -0.23434256 -0.23577659 -0.3602604 -0.24101937
-0.36010295 -0.258356 -0.38109368 -0.28199932 -0.19221021 -0.40408337 -0.2008558 -0.17510307
-0.5195752 -0.45128885 -0.30558404 -0.2205541 -0.20772196 -0.25834244 -0.25778753 -0.26128593
-0.4183416 -0.37833259 -0.24791063 -0.39672858 -0.3165419 -0.36237147 -0.21778432 -0.26702276
-0.32520494 -0.27559927 -0.35550404 -0.31986663 -0.28844073 -0.33953974 -0.2885725 -0.2320277
-0.29048258 -0.27097964 -0.3455108 -0.14843553 -0.38799584 -0.28153405 -0.24147603 -0.37092617
-0.30131704 -0.25795692 -0.36968577 -0.34035864 -0.261593 -0.18024902 -0.40546492 -0.25984305
-0.13637355 -0.43539742 -0.375949 -0.19845164 -0.32255873 -0.23048061 -0.1876585 -0.282318
-0.26844156 -0.3357283 -0.2595408 -0.3024007 -0.19064565 -0.27264586 -0.31668168 -0.32062343
-0.2506383 -0.2511989 -0.28490448 -0.16812189 -0.23558533 -0.2651103 -0.24240658 -0.2893948
-0.39939356 -0.34334597 -0.23052226 -0.44445327 -0.31999284 -0.38103735 -0.34035492 -0.26609588
-0.28869918 -0.26197705 -0.3116932 -0.37096882 -0.3006006 -0.27424046 -0.2658574 -0.19943266

model.encoder.down.0.block.0.conv2.weight_quantizer_0.x_max f4 [128, 1, 1, 1]
00000000: a613 413e 3833 ae3e 2668 6d3e 4cb8 653e
00000010: ed8a ac3e 3ef5 843e 5fb5 b33e 6965 693e
00000020: 0dbe 823e 23ce 5b3e 5769 683e 9484 5c3e
00000030: cd31 e23e 2c81 a23e fcba 653e 3855 863e
00000040: ca8f 853e 3a69 733e 5b42 463e 2c4b 953e
00000050: 4e9e de3e 4c77 a03e f9f2 a23e d627 6b3e
00000060: 8360 393e c58c 953e bfb1 893e 526d c83e
00000070: 76f4 5d3e 5801 673e b1ee 3e3e 0e9d 7c3e
00000080: 8d73 833e 883b 773e 4748 a63e c019 973e
00000090: 6755 823e 11b8 8d3e da82 813e c862 923e
000000a0: 9d8a d33e 1e99 5c3e a7ba e23e a99a 883e
000000b0: 6256 533e 0503 8c3e 6374 853e 65e3 823e
000000c0: 645c dd3e 6c21 ad3e 72e9 803e 3ad9 803e
000000d0: da01 7f3e 9ec2 983e 8faa 663e 19a4 8d3e
000000e0: db23 993e 9685 d23e 6e64 873e c632 9a3e
000000f0: 70dc 753e a947 be3e dc6e 683e 106e b73e
00000100: 0fbb aa3e db79 423e 2d2d 953e 33db 8a3e
00000110: 5d4b a43e 95fe df3e 904d 8b3e ca67 8e3e
00000120: a4ae c33e 09ff b03e b60f b43e 740d 113e
00000130: 2050 683e b259 7f3e b734 913e 05ea aa3e
00000140: 79a9 a13e c7ee 853e 74ca 903e 97da 873e
00000150: 9878 693e 3e26 483e 3be9 bb3e 66b0 ad3e
00000160: 0503 263e f396 c23e 98e6 a63e 8d78 553e
00000170: ea0b a33e 61f9 343e b5ec 5b3e cc5a 683e
00000180: f889 873e 15f3 c23e 5054 993e 5213 943e
00000190: b24b 2a3e 5699 a83e ea5d b63e 74f7 413e
000001a0: 2454 8d3e 7aac 8a3e 2224 933e 3903 643e
000001b0: 4a55 6d3e 3f94 813e d76d 9a3e e2cb 613e
000001c0: e18f 8c3e bf1f d03e 759a 603e 488c ca3e
000001d0: 712b 723e 9cf9 773e 6a83 9b3e cec0 9a3e
000001e0: 6975 593e d53e b03e 4c2a 883e 551a a93e
000001f0: d1f6 963e 59f8 d33e 9d7c 8d3e 9279 5d3e
0.18855152 0.34023452 0.2318426 0.22433585 0.33699742 0.25968355 0.35099313 0.22792591
0.25535622 0.21465354 0.22696434 0.2153495 0.4417862 0.31739175 0.2243461 0.26236892
0.26086265 0.2377061 0.1936125 0.29158914 0.43480152 0.31341016 0.31825998 0.22964415
0.18103223 0.2920896 0.26893422 0.39145905 0.21675286 0.22559106 0.18645741 0.24669287
0.25674096 0.24143803 0.32477018 0.29511833 0.25455782 0.27679494 0.25295144 0.2859099
0.4131669 0.21542785 0.4428303 0.26680496 0.20638421 0.27346054 0.2606536 0.25564113
0.4323455 0.3381456 0.25178105 0.2516573 0.2490305 0.2983598 0.22526 0.2766426
0.29910168 0.41117543 0.2644381 0.30116862 0.24009871 0.37164047 0.2269854 0.3582616
0.3334584 0.18991797 0.2913603 0.2712036 0.32088748 0.43748918 0.27207613 0.2781356
0.38219178 0.34569576 0.35168236 0.14165288 0.22686815 0.2493656 0.2836053 0.33381668
0.3157461 0.26158735 0.2827946 0.26533958 0.22799909 0.19545838 0.36701378 0.33923644
0.1621209 0.3800579 0.32597804 0.20846768 0.31845027 0.17673256 0.21477015 0.22690886
0.2647245 0.38076082 0.29947138 0.2892099 0.16630438 0.32929486 0.35618526 0.18942052
0.27603257 0.27084714 0.28738505 0.22266854 0.23177066 0.25308415 0.30161926 0.22050431
0.2745352 0.4064922 0.2193392 0.3956015 0.23649384 0.24216312 0.30373698 0.30225223
0.21236195 0.34422937 0.2659477 0.33027902 0.2948518 0.41400412 0.27634135 0.21628407

model.encoder.down.0.block.1.norm1.weight f4 [128]
00000000: 3ca4 863f 96e3 b43f 6513 853f f2e9 663f
00000010: 6170 6e3f 55fd 743f c48c 7c3f 0785 823f
00000020: 4035 8c3f 3d52 843f 98ed 593f 5d97 843f
00000030: 9b62 ba3f bba9 7d3f ba95 813f 15a4 763f
00000040: 7ca4 6c3f b05c 573f ad80 7f3f 1d6f 833f
00000050: 3122 a93f 15f6 7d3f f8e3 823f 41e6 663f
00000060: 6cf3 803f 35ee 8a3f ee78 833f 5bfd b53f
00000070: 9809 4a3f ee4f 6f3f 2e69 5d3f 27f8 563f
00000080: 57e9 873f bc04 823f 3602 a13f 2276 963f
00000090: 0c3b 603f 8992 813f 64b1 703f 1d37 5a3f
000000a0: 8657 a23f d709 923f 7eec a53f bbd8 783f
000000b0: 198c 463f db15 6e3f 8b46 573f 9bce 583f
000000c0: db8c c23f 9745 a33f 0410 8b3f 73ac 9e3f
000000d0: 2bea 6e3f 0bbd 833f 6ed2 5c3f 76f6 733f
000000e0: 9895 9c3f 1bb3 bc3f 92cf 873f 20d8 b33f
000000f0: c5be 853f 6515 b23f 6a36 853f 8895 8b3f
00000100: 4ea4 9c3f b1e4 863f 021a 943f b1af 923f
00000110: 0580 8b3f 07c2 803f 5866 773f 88c1 7a3f
00000120: 71af 6e3f eeba 5f3f ecac 823f 8675 5e3f
00000130: ef23 623f 5ae1 943f d089 8a3f 91dd 763f
00000140: fe9a a13f 9481 8c3f d80f 933f ed01 923f
00000150: b6a7 763f 6812 803f 6fa8 9c3f 9c96 833f
00000160: 94f8 593f 9d77 9f3f da5d 913f 2907 533f
00000170: b37a 4e3f 41a0 213f 510c 483f 7ff5 7d3f
00000180: 5cf2 8b3f c592 953f 988d 893f 82e0 513f
00000190: a682 773f dd6a 673f a3d1 813f cccc 653f
000001a0: 478d 503f 83aa 5f3f 4923 7b3f 546b 503f
000001b0: c26e 963f 0fc8 843f 1fee 843f 7337 5f3f
000001c0: 0f8c 6e3f 3d43 953f e4e4 613f df31 863f
000001d0: 67ea 823f 010e 763f afc0 863f e53a 403f
000001e0: d71b 753f eaa5 643f 90d0 823f 77c3 9f3f
000001f0: da0b 623f 5078 803f 9b76 573f 69f5 603f
1.051887 1.4131954 1.0396544 0.9020072 0.93140227 0.95699054 0.9865229 1.0196847
1.0953751 1.0337597 0.85128164 1.0358692 1.4561342 0.99087113 1.0123818 0.9634412
0.92438483 0.84125805 0.9980572 1.0268284 1.3213559 0.99203616 1.022582 0.9019509
1.0074286 1.0853945 1.027128 1.4217943 0.7892089 0.9348134 0.86488616 0.839724
1.0618085 1.0157695 1.25788 1.1754801 0.875901 1.0122844 0.94020677 0.85240346
1.268296 1.1409253 1.2962797 0.97205704 0.7755752 0.930021 0.84092015 0.84690255
1.5199236 1.2755612 1.0864263 1.2396377 0.9332606 1.0292066 0.8625859 0.95297945
1.2233152 1.4742159 1.061022 1.4050331 1.0448843 1.3912779 1.0407231 1.0905008
1.2237642 1.0538541 1.1570437 1.1459867 1.0898443 1.0059212 0.9664054 0.97951555
0.9323645 0.8739461 1.0209022 0.86898077 0.8833608 1.1631272 1.0823307 0.96431834
1.2625425 1.0977044 1.148921 1.1406838 0.96349657 1.0005617 1.2238902 1.0280337
0.85144925 1.2458378 1.1356766 0.824328 0.80655974 0.63135153 0.78143793 0.9920272
1.0933337 1.1685416 1.0746336 0.81983197 0.9668373 0.90397435 1.0142101 0.8976562
0.8146557 0.87369555 0.98100716 0.8141377 1.1752551 1.0373553 1.0385169 0.87193984
0.9318246 1.1661144 0.88239884 1.048397 1.0227784 0.9611512 1.0527552 0.75089866
0.95745605 0.89315665 1.0219898 1.2481526 0.88299334 1.0036716 0.8416535 0.87874466

model.encoder.down.0.block.1.norm1.bias f4 [128]
00000000: 053c 60bd 2a73 71bc 100c 98bd 640a a4bd
00000010: ebf2 1abe 8007 49be 0e4b 26be 984d 6ebd
00000020: 79d3 88bd 9915 ccbd 9123 28be ee90 19bd
00000030: 5555 27bc 09be 1bbd 0d92 54bd 6e05 b8bd
00000040: 2eff 9cbd 37fc 05be 9a2b d0bd 1a91 abbd
00000050: 24ed a8bd f166 9bbd 11ae c3bd 1376 c0bd
00000060: 6451 16bd ce7b 14bb 3077 53bd 726f 2d3c
00000070: 2cc9 e2bd 2b12 3cbe 27f3 3ebd 2335 16be
00000080: b671 b63c 6a63 2abd 8f00 1c3d 89f2 d83b
00000090: 14fa 03be 825b 20bd 0caa e4bd fb8d f9bd
000000a0: 17dc 85bc ea5b 63bd 2b64 60bd 237a 11bc
000000b0: 695d 49be f617 33bd 23fe 1ebe 8b76 d7bd
000000c0: 8f27 81bd 9caf 88bc f824 3ebd 3080 34bd
000000d0: 0fc4 3bbe 90c9 d9bd 944a 23be 64be 3bbe
000000e0: e729 a7bd d8cc 59bd 50e9 d0bd 605b 9abd
000000f0: 763e 5cbd aefe a93c 59cc 6bbd fe1e 32bd
00000100: 6a7a f4bb 15be bcbd aba2 93bd 1e68 a8bd
00000110: 030b 9cbd 2a96 bfbd 1ece 1cbe 3f3e 22be
00000120: 83bb fdbd acda 55be 1eee 17be ae72 10be
00000130: 7413 08be 2010 51bd 697f a6bd bfcf 31be
00000140: 3f80 293c 04e1 e3bc dea2 9ebc b430 2dbd
00000150: 9999 72bd f144 47bd 0605 f2bd 0b60 a5bd
00000160: 242a 89bd 6c97 31bd cd08 0abd 213e debd
00000170: 9d52 2dbe 1a90 93be 94a7 13be 97d2 9ebd
00000180: 2db1 e5bd 4005 07be 3726 d0bd d175 21be
00000190: b7ee cbbd 2ee7 04be 9cde f5bd 4c79 08be
000001a0: e64b 2fbe 243f f0bd b675 0ebe d00b 59be
000001b0: 1d4d acbd 5eb4 90bd ebc5 34bd 274c 2abe
000001c0: 62a9 07be 8a9e f0bd 5c4f 09be 2d26 b2bd
000001d0: 73ce 7bbd 79f4 f1bd 79f5 1dbe d8ca 52be
000001e0: 3788 eabd 8096 24be ea9c afbd fda1 c4bd
000001f0: 77a7 77be 89c1 9cbe 33e7 37be 5b1d 70be
-0.05474474 -0.01473693 -0.07424176 -0.08009794 -0.15131728 -0.19631767 -0.16239569 -0.058179468
-0.0668096 -0.09965057 -0.16419818 -0.03749173 -0.010213216 -0.03802303 -0.051897097 -0.08985411
-0.07665859 -0.13084494 -0.10164566 -0.08377285 -0.08248356 -0.07587994 -0.09554685 -0.09397521
-0.036698714 -0.00226568 -0.051627338 0.010585653 -0.11073527 -0.18366306 -0.046618607 -0.14668708
0.022271018 -0.041598715 0.03808647 0.0066207093 -0.12888366 -0.03914977 -0.11165246 -0.12185284
-0.016340299 -0.055507578 -0.054783028 -0.008879217 -0.1966454 -0.043724023 -0.15526633 -0.10520657
-0.06306373 -0.0166853 -0.046421975 -0.04406756 -0.18336509 -0.10634148 -0.15946418 -0.18334347
-0.08162289 -0.05317387 -0.10200751 -0.0753696 -0.053770505 0.020751324 -0.057567928 -0.043486588
-0.007460882 -0.09215943 -0.07208761 -0.08222984 -0.07619288 -0.093548134 -0.15313002 -0.15844058
-0.12389281 -0.20884198 -0.14836928 -0.14106247 -0.13288671 -0.05104077 -0.0812977 -0.17364405
0.010345518 -0.027817257 -0.01936477 -0.042282775 -0.059228513 -0.048649732 -0.118173644 -0.08074959
-0.06697491 -0.043357298 -0.0336998 -0.10851694 -0.16926046 -0.28820878 -0.14419395 -0.077550106
-0.11215434 -0.13185596 -0.10163539 -0.157676 -0.099576406 -0.12978813 -0.1200535 -0.13327521
-0.17118797 -0.11730793 -0.1391209 -0.21195912 -0.08413146 -0.07065652 -0.04413406 -0.16630612
-0.13248208 -0.11748989 -0.1340918 -0.08698688 -0.061476182 -0.118142076 -0.15425672 -0.20585191
-0.11451762 -0.16073036 -0.08574851 -0.09601209 -0.24184977 -0.30616406 -0.17959289 -0.23448698
