weights/UV_W8A8/PTQ/vae_ckpt_merge_saw_sep.pth (torch, 849846 bytes, 392 tensors)

model.encoder.conv_in.scale_factor f4 [1, 3, 1, 1]
000000 d5 d7 bb 3f d4 bb bb 3f 33 84 b7 3f
       1.4675242 1.4666696 1.4337219

model.encoder.conv_in.offset f4 [1, 3, 1, 1]
000000 38 20 34 3c f5 8b 38 3c 6a e9 3a 3c
       0.01099401 0.011263837 0.011408189

model.encoder.conv_in.weight_quantizer_0.x_min f4 [128, 1, 1, 1]
000000 a4 d0 64 be 62 52 8a be 6d b0 a5 be ec 20 90 be
       -0.22345215 -0.27015978 -0.32361165 -0.28150117
000010 80 6e 89 be d4 20 86 be 11 a5 8f be 09 a7 8b be
       -0.26842117 -0.2619692 -0.28055623 -0.27275875
000020 89 6e a2 be df 9d ad be 7c 15 9f be b9 44 84 be
       -0.31724957 -0.3390951 -0.3107108 -0.2583368
000030 ab 8e 71 be 3e 52 89 be 5b 48 8d be a5 d2 84 be
       -0.2358958 -0.26820558 -0.27594265 -0.2594196
000040 c6 e8 8c be 98 1c a2 be dc a6 81 be dd 3b 66 be
       -0.27521342 -0.3166244 -0.25322616 -0.22483774
000050 c6 3b a7 be 3a f7 8e be 41 41 a0 be b9 92 92 be
       -0.3266279 -0.27922994 -0.31299785 -0.28627566
000060 23 46 9a be 14 bf 76 be 01 9d 92 be 64 ae 87 be
       -0.30131635 -0.24096328 -0.2863541 -0.26500237
000070 05 d2 a4 be 11 fe c9 be 54 49 94 be 53 2c 90 be
       -0.32191482 -0.3945165 -0.28962195 -0.28158817
000080 7e 5b b3 be 72 d1 80 be fb ec b4 be b5 db 89 be
       -0.3503074 -0.25159794 -0.35337052 -0.26925436
000090 22 48 8b be 84 da 75 be 9b 82 96 be b4 c7 87 be
       -0.2720347 -0.24009138 -0.2939652 -0.2651955
0000a0 2f 75 8b be e2 fb 85 be c1 d7 8f be e2 22 90 be
       -0.2723784 -0.26168734 -0.28094295 -0.28151613
0000b0 5e 7b c0 be 56 79 90 be 46 3d 88 be 58 63 8d be
       -0.37594122 -0.28217572 -0.26609248 -0.27614856
0000c0 9e 07 a8 be 87 9b 7e be 97 b9 9e be 64 64 9a be
       -0.3281831 -0.24864016 -0.3100097 -0.30154717
0000d0 18 19 bb be b6 a8 b3 be 5b 4b 78 be c6 64 96 be
       -0.36542583 -0.35089654 -0.24247496 -0.2937376
0000e0 d2 26 9c be 75 24 a8 be e0 66 95 be 63 46 7b be
       -0.30498368 -0.32840315 -0.2918005 -0.24538569
0000f0 ce ca 93 be 37 60 98 be 97 2f 95 be e7 07 8c be
       -0.28865665 -0.29760906 -0.2913787 -0.2734978
000100 77 bc 89 be ef 6e a4 be 89 b4 b7 be f8 6a 8f be
       -0.269016 -0.32115886 -0.35879925 -0.28011298
000110 9d ce 91 be b4 42 9d be d0 35 98 be 98 4a 94 be
       -0.28477946 -0.30714953 -0.29728556 -0.2896316
000120 e3 97 8f be 41 ec 88 be c8 74 a3 be a4 1e 9b be
       -0.28045568 -0.26742747 -0.31925035 -0.30296814
000130 9c cf 51 be bd dc 91 be 73 ce ad be c0 07 8b be
       -0.20489353 -0.28488722 -0.3394657 -0.2715435
000140 83 62 9b be 88 80 92 be 46 37 88 be ce 7f 87 be
       -0.30348596 -0.28613687 -0.2660467 -0.26464695
000150 e0 36 9d be a4 6e 62 be 59 82 88 be f0 4c 96 be
       -0.3070593 -0.22112519 -0.26661947 -0.29355574
000160 67 0e 9a be 4c 84 72 be f3 ae 84 be 7e 5f 76 be
       -0.30089113 -0.2368328 -0.25914726 -0.24059865
000170 59 05 a6 be 43 64 c3 be f0 a9 81 be 68 dd a3 be
       -0.32425955 -0.3816243 -0.25324965 -0.32004857
000180 08 2e b2 be c5 27 8d be 54 45 8c be eb d3 b2 be
       -0.34800744 -0.27569404 -0.27396643 -0.34927306
000190 1a 75 92 be 7f 07 69 be 69 47 92 be 6d 50 88 be
       -0.28604966 -0.22756766 -0.28570107 -0.2662386
0001a0 43 f1 01 be ed 8c 84 be 59 3b ac be 09 88 b4 be
       -0.1268969 -0.25888768 -0.3363903 -0.35260037
0001b0 ba a9 90 be 80 82 bd be f1 1a a4 be 8b 51 ab be
       -0.2825449 -0.37013626 -0.32051805 -0.3346065
0001c0 2b 08 85 be 30 34 8a be 81 d8 90 be 65 88 9c be
       -0.25982794 -0.2699294 -0.2829018 -0.3057281
0001d0 c8 e0 25 be 67 4d 71 be 34 7f 99 be a6 a6 8b be
       -0.16199028 -0.23564683 -0.2997986 -0.2727558
0001e0 f9 b9 7d be 3c 31 48 be be 0a 94 be 0c eb 9c be
       -0.24777974 -0.19550031 -0.28914446 -0.30648077
0001f0 48 4e b0 be 65 aa 8c be 37 f4 83 be 12 34 85 be
       -0.34434724 -0.2747375 -0.2577226 -0.2601629

model.encoder.conv_in.weight_quantizer_0.x_max f4 [128, 1, 1, 1]
000000 9c 41 90 3e 4d 22 98 3e a2 1b 3c 3e 77 f7 85 3e
       0.28175056 0.2971367 0.18369916 0.26165363
000010 74 3d 97 3e 5e 08 9d 3e 19 9a 86 3e e5 3e 84 3e
       0.29539073 0.30670446 0.26289442 0.25829235
000020 6b 19 bc 3e 05 63 79 3e 07 f2 84 3e 52 0c 7d 3e
       0.36738142 0.24354179 0.25965902 0.24711731
000030 da 2e a3 3e 3b 56 a6 3e 88 c5 8d 3e 2a 6e 78 3e
       0.31871682 0.32487664 0.27689767 0.24260774
000040 34 dd 93 3e e0 c5 ac 3e b0 f4 a8 3e 8e 31 b0 3e
       0.28879702 0.33744717 0.32999182 0.34412807
000050 9a b6 85 3e 0d 5c a5 3e 9a 53 80 3e b3 1f 74 3e
       0.26115876 0.32296792 0.25063783 0.23840217
000060 cc a3 8f 3e 75 cb 99 3e 47 20 7d 3e a0 6e 83 3e
       0.28054655 0.30038038 0.24719344 0.25670338
000070 d9 b4 b5 3e 4d fa 3d 3e af 2e cf 3e 6e 30 ae 3e
       0.35489538 0.18552513 0.40465304 0.34021324
000080 05 0a 7a 3e ca 1f 97 3e a1 91 88 3e 3d 9e 8a 3e
       0.24417885 0.2951644 0.26673606 0.2707385
000090 96 a0 89 3e 8f 0e a5 3e 6c 56 82 3e 97 22 a2 3e
       0.2688033 0.3223767 0.2545656 0.31667015
0000a0 a4 cb 8a 3e 2f c4 8f 3e 73 eb 9f 3e 57 f9 88 3e
       0.2710849 0.28079364 0.3123432 0.2675273
0000b0 3b 6d 5b 3e 3d f9 a5 3e e1 1c a3 3e 09 cf 85 3e
       0.21428387 0.32416716 0.3185797 0.26134518
0000c0 22 11 6d 3e 9f 91 99 3e 9b fb 99 3e a2 5c 75 3e
       0.23151067 0.29993913 0.30074772 0.23961118
0000d0 8f ed 82 3e a6 e4 ab 3e 34 8a 81 3e e0 6e 89 3e
       0.25571868 0.33572882 0.25300753 0.26842403
0000e0 58 14 a2 3e a0 f8 9b 3e 68 13 81 3e 1a 25 a9 3e
       0.31656146 0.30463123 0.25210118 0.3303612
0000f0 8e ab 96 3e 6e 91 88 3e a8 d0 80 3e d7 04 88 3e
       0.2942776 0.26673454 0.25159192 0.26566193
000100 e6 4d a3 3e 9f 57 ad 3e d2 ab a3 3e 80 c8 92 3e
       0.3189537 0.33855912 0.31967026 0.28668594
000110 95 6d 8a 3e 5b aa 71 3e 9a f4 8d 3e 54 44 8b 3e
       0.2703673 0.23600142 0.2772568 0.27200568
000120 6d c6 92 3e 07 23 95 3e f1 e8 9e 3e b8 42 a5 3e
       0.28667012 0.29128286 0.31037095 0.32277465
000130 f0 3e 8e 3e dd 50 87 3e b2 81 97 3e ce cd 82 3e
       0.27782393 0.2642888 0.29591137 0.25547642
000140 be 4f 84 3e 04 53 80 3e cb db 80 3e da aa 89 3e
       0.25842088 0.25063336 0.2516769 0.26888162
000150 63 3d 71 3e 89 4b 9a 3e 13 0d 87 3e f9 f1 8b 3e
       0.23558573 0.30135754 0.26377162 0.27333048
000160 bd 44 8a 3e 9a 3b 94 3e bb 86 9d 3e 51 0d a0 3e
       0.27005568 0.28951722 0.30766854 0.3126016
000170 1f f4 81 3e 9b 6a 3e 3e 9a 34 d7 3e 28 84 86 3e
       0.25381562 0.18595354 0.4203232 0.26272702
000180 d0 a0 8a 3e 9c 91 80 3e 7f 04 75 3e f8 9d 9b 3e
       0.27075815 0.2511109 0.23927496 0.30393958
000190 d8 09 8f 3e e8 b6 90 3e b0 cf af 3e e6 e4 8f 3e
       0.27937198 0.28264546 0.3433814 0.28104323
0001a0 4c 64 e1 3e 51 9b a4 3e 1a a3 92 3e 30 e3 b2 3e
       0.44021833 0.32149747 0.28640062 0.34938955
0001b0 93 90 93 3e c0 54 83 3e 9a aa 91 3e ab dd 83 3e
       0.2882124 0.25650597 0.2845047 0.25755057
0001c0 bf d6 91 3e 85 5e 84 3e 9d 90 89 3e 7f 7c 8b 3e
       0.2848415 0.25853363 0.26868144 0.2724342
0001d0 0b d4 50 3e cb b6 66 3e 82 6d 9a 3e bc f2 97 3e
       0.20393388 0.22530667 0.30161673 0.2967738
0001e0 27 f2 63 3e e4 c6 87 3e bf a0 89 3e aa e0 86 3e
       0.22260343 0.2651893 0.26880452 0.2634328
0001f0 db 9e 9f 3e 8d f1 85 3e 95 d7 9a 3e 60 88 8b 3e
       0.31175885 0.2616085 0.302426 0.27252483

model.encoder.down.0.block.0.norm1.weight f4 [128]
000000 48 a4 5d 3f e3 b5 85 3f b8 59 6f 3f a2 04 85 3f
       0.865788 1.0446132 0.93496275 1.0392039
000010 aa f1 82 3f 32 b1 81 3f c0 cd 7c 3f 54 36 7c 3f
       1.023 1.0132201 0.9875145 0.985204
000020 36 05 c6 3f e6 c7 9d 3f 7f 12 a6 3f d2 ee 6f 3f
       1.547034 1.2326629 1.2974395 0.93723786
000030 ab 61 6b 3f 3b af 7f 3f f2 2f 84 3f af dc 7f 3f
       0.91945904 0.99876755 1.0327132 0.9994611
000040 d4 2e 87 3f 4c 6d 6b 3f 7d 0c 29 3f e2 ee 4e 3f
       1.0561166 0.9196365 0.6603468 0.80833256
000050 20 7f 7c 3f 33 c8 67 3f 74 0d 85 3f c2 38 88 3f
       0.9863148 0.90539855 1.039473 1.0642321
000060 8c 51 59 3f 52 5a 7d 3f 2c c9 52 3f b3 c0 73 3f
       0.84890056 0.9896594 0.82338214 0.9521591
000070 79 10 50 3f 96 fd 2e 3f 1a d3 6b 3f 53 ec 73 3f
       0.81275135 0.6835569 0.9211899 0.9528248
000080 7d 08 6d 3f c6 3b 77 3f 7d 23 93 3f 1b 83 81 3f
       0.9259108 0.9657558 1.1495205 1.0118135
000090 ce d4 5d 3f 5e 96 6f 3f 02 05 82 3f e8 33 6f 3f
       0.8665284 0.9358882 1.0157778 0.9343858
0000a0 b4 96 7b 3f ed 00 7d 3f c7 48 90 3f 23 9f 80 3f
       0.9827683 0.9882954 1.127221 1.0048565
0000b0 c9 6d 02 3f bf 02 82 3f 6d b6 6b 3f bd 88 68 3f
       0.5094877 1.0157088 0.92075235 0.90833646
0000c0 64 2e 83 3f a1 3a 9c 3f 52 97 91 3f 8a b6 7b 3f
       1.0248532 1.2205392 1.1374304 0.9832541
0000d0 0d 01 83 3f b9 d1 89 3f 3a 34 8d 3f 2f b6 80 3f
       1.0234696 1.0767127 1.1031563 1.0055598
0000e0 cc 10 87 3f 9b c0 8b 3f e3 9e 86 3f cb d5 74 3f
       1.0552001 1.0918154 1.0517238 0.9563872
0000f0 6a bc 83 3f 64 df 91 3f 62 be 86 3f 99 ec 89 3f
       1.0291874 1.1396298 1.052685 1.0775329
000100 8f 80 84 3f 92 31 92 3f 47 96 8f 3f 9e 08 84 3f
       1.0351733 1.1421378 1.1217736 1.031513
000110 47 86 6d 3f 48 76 88 3f d4 64 82 3f d0 93 8b 3f
       0.92783016 1.0661097 1.018702 1.0904484
000120 3e a6 7e 3f 7f 38 77 3f cc 5e 82 3f a9 0d 68 3f
       0.99472415 0.9657058 1.018518 0.90645844
000130 3e cd 89 3f 1f 32 7f 3f 62 2f 98 3f bd 1a 83 3f
       1.076576 0.99685854 1.188946 1.0242535
000140 3c 3b 80 3f 47 7b 8a 3f 54 0d 80 3f 1e 83 76 3f
       1.0018077 1.0818871 1.0004067 0.9629382
000150 bf 9e 84 3f 7e 3d 69 3f d5 5d 85 3f 47 9e 80 3f
       1.0360945 0.91109455 1.041926 1.0048302
000160 cb 3a 64 3f 0b ac 7a 3f b7 f4 6b 3f 52 24 5c 3f
       0.8915221 0.97918767 0.9217028 0.8599292
000170 0c 27 73 3f 57 a9 2c 3f a0 41 71 3f 7a 29 79 3f
       0.94981456 0.6744589 0.9424076 0.97328913
000180 c1 cf 94 3f 3f b6 85 3f c2 3c 72 3f 80 61 ad 3f
       1.1625901 1.0446242 0.9462396 1.354538
000190 2f cf 69 3f ca e3 78 3f cf 02 97 3f cc 2e 61 3f
       0.9133176 0.9722258 1.1797732 0.8796203
0001a0 a2 e0 4e 3f 8f 85 7f 3f 4d 82 91 3f 55 95 2e 3f
       0.8081151 0.9981317 1.136789 0.6819661
0001b0 44 b6 81 3f 27 8b a4 3f 2c 51 86 3f b2 e5 8d 3f
       1.0133748 1.2854966 1.0493522 1.1085722
0001c0 cf 0c 7f 3f 5f a0 7a 3f 87 c3 79 3f 7b f0 6b 3f
       0.9962892 0.97900957 0.97563976 0.9216382
0001d0 4f 87 7f 3f 8d fb 77 3f 9e 96 82 3f 8a da 8b 3f
       0.9981584 0.9686821 1.0202215 1.0926068
0001e0 38 d5 88 3f fa eb 72 3f 60 ea 86 3f 85 83 88 3f
       1.0690069 0.9489132 1.0540276 1.0665137
0001f0 38 f9 8e 3f 0a c3 7b 3f ef 79 63 3f 54 87 76 3f
       1.1169806 0.9834448 0.8885793 0.96300244

model.encoder.down.0.block.0.norm1.bias f4 [128]
000000 ab bf 5d be 8b bf 5d bd 31 2f f9 bc aa 89 49 bd
       -0.21655147 -0.054137748 -0.03041801 -0.049203552
000010 cd cf 0d 3d e9 93 97 bb 37 37 92 bd 67 ca b6 bd
       0.034622002 -0.0046257866 -0.07139438 -0.08925324
000020 bf 33 4d 3e 90 2b d4 3c ee a2 11 3e 79 af 1a 3e
       0.20039271 0.025899678 0.14222309 0.15106
000030 cc 50 00 be 31 64 b8 bc 05 5e 58 3c c6 a6 05 bd
       -0.12530822 -0.022508712 0.01320601 -0.03262975
000040 9a aa b3 3d 1f 51 a8 bd c5 82 9a be bf e9 fb bd
       0.08772774 -0.082185976 -0.30177894 -0.12300443
000050 ca 49 94 bd b2 81 c1 3c 5d f6 4b bc d9 6c f4 ba
       -0.07240637 0.023621414 -0.012448874 -0.0018648162
000060 ab c9 09 be 49 d7 4e 3c f4 31 7a be 24 cf c2 bd
       -0.13455836 0.01262457 -0.24433118 -0.09512165
000070 02 9e 1d be af 7e c3 be f7 2e 03 be c3 3a b1 bd
       -0.15392306 -0.3818259 -0.12810884 -0.08653786
000080 2e b3 e3 bd 4d 5b 83 3b 34 c4 48 3d 61 12 88 bd
       -0.1111816 0.0040086866 0.04901524 -0.066441305
000090 32 21 0a be b9 c1 af bd 25 e7 80 bd 4c 36 a0 bd
       -0.13489226 -0.085818715 -0.06294087 -0.07822856
0000a0 c8 bc 7c bc cc 8a 38 3c 4b d5 03 3d da cb 4d bd
       -0.015425868 0.0112635605 0.032185834 -0.050243236
0000b0 f3 19 ca be c4 44 f0 3c 7e ba 92 bd 02 df 05 be
       -0.39472923 0.029329665 -0.07164477 -0.13073352
0000c0 8c 2a 19 bd bb b2 c5 3c 1f 0a 75 3d 4b 9b e1 bd
       -0.03739409 0.024133077 0.059824105 -0.11015948
0000d0 9a 5f 10 be ee ba a9 bd 5d ba 7e ba a2 d6 2b bc
       -0.14098969 -0.08287607 -0.00097171013 -0.010488184
0000e0 50 57 8f bc c7 56 fe 3d 18 de ec 3c e2 8f 9b 3c
       -0.017497689 0.12418895 0.028914496 0.018989507
0000f0 b9 85 97 3c 94 26 0b 3e 4d 3f 1f bd 13 27 08 3d
       0.018496381 0.13588935 -0.038878728 0.03324039
000100 2e 1c 11 3c 47 3d 03 3d c4 26 88 bd ff ee c9 3d
       0.008856816 0.03204086 -0.06648019 0.09860038
000110 50 e8 0b 3d 9b a8 2e bd f7 b7 66 bd 35 84 c6 3c
       0.034157097 -0.042641263 -0.056327786 0.024232963
000120 09 31 9d bc 74 bf cf bd b6 f8 d7 bc c0 0a e6 bd
       -0.01918842 -0.10143939 -0.026363712 -0.11232519
000130 f8 88 e7 b9 1f 39 bb bd ed 94 ae 3d fd 80 c1 3d
       -0.00044161803 -0.09141754 0.08524499 0.09448431
000140 f4 20 88 3c 8b 6c 08 3d a6 c8 1a bd 12 ec 46 bd
       0.016617276 0.03330664 -0.03778901 -0.048564978
000150 4d 68 dd 3b f4 c7 89 3d fe 15 fe bb e5 ec 41 bd
       0.0067568184 0.06727591 -0.0077540865 -0.04734506
000160 24 1b 0c be b6 d4 9d bd 5b c4 8b bd 3b 67 01 be
       -0.13682228 -0.07706587 -0.06824561 -0.12637036
000170 da c3 a9 bd 67 2e 9f be 69 b7 04 be 98 aa 51 bd
       -0.08289309 -0.3109009 -0.1296059 -0.05118808
000180 8d 18 a8 3d a8 31 c0 3b 39 a7 b9 bd e8 b9 0a 3e
       0.08207808 0.0058652945 -0.09065098 0.1354748
000190 b9 ee 13 bd 88 4d 95 bd 46 ae 7a 3d a3 1a 16 be
       -0.036116336 -0.072901785 0.061201356 -0.14658599
0001a0 08 9d 81 be 4a 48 50 bd b1 27 1f 3d 20 e9 8c be
       -0.25315118 -0.05085019 0.038856212 -0.2752161
0001b0 fb ad 3f 3d 3b 8b 7d 3e 9f bb 66 38 0e b7 84 bc
       0.04679678 0.24760143 5.501101e-05 -0.016200569
0001c0 dc 09 df 3b ac a2 7b bd 5b 8d 7e 3d b6 b4 06 bd
       0.0068065953 -0.061434433 0.062146526 -0.032887183
0001d0 80 b4 71 bd 5f 48 9c bd b3 68 7e bd 5e f6 c5 3d
       -0.05901003 -0.07630991 -0.062111568 0.096661314
0001e0 5f af 13 bc 11 5e 80 3d ec f3 0d bd 73 7c 92 bc
       -0.00901398 0.06267942 -0.03465645 -0.017881608
0001f0 79 50 a0 3d 12 1b 3e ba 62 32 98 bd ef 9f 54 bd
       0.07827849 -0.00072519586 -0.07431485 -0.051910337

model.encoder.down.0.block.0.conv1.scale_factor f4 [1, 128, 1, 1]
000000 f7 f4 f5 3f a3 8b 18 40 6e 1a f8 3f 7e 24 02 40
       1.9215382 2.3835227 1.9383066 2.0334773
000010 4b b1 05 40 28 b8 28 40 b2 86 19 40 9c 2f 19 40
       2.088946 2.63624 2.3988461 2.3935308
000020 1e cd 5d 40 7f e6 45 40 5f 76 4f 40 22 cb 49 40
       3.4656444 3.0921934 3.2415998 3.1530232
000030 f1 a2 3d 40 3e 9c 11 40 1d 67 f0 3f fb 89 07 40
       2.9630702 2.2751613 1.8781468 2.1177967
000040 f1 c0 e3 3f d5 8d 1e 40 ee aa 23 40 82 02 0e 40
       1.7793256 2.4774067 2.5573077 2.218903
000050 2c e2 1f 40 e5 bf 2f 40 22 f8 24 40 d7 5a 21 40
       2.4981794 2.7460873 2.5776448 2.5211694
000060 9f db 19 40 1b 34 10 40 d2 1d 26 40 e3 5d eb 3f
       2.4040296 2.2531803 2.59557 1.8388027
000070 60 7f f2 3f 22 e1 1c 40 6a 69 07 40 03 2f d1 3f
       1.8945122 2.451241 2.115809 1.6342472
000080 81 20 48 40 7e 84 39 40 54 5b 2e 40 49 ae 3e 40
       3.126984 2.8987117 2.7243242 2.9793875
000090 f4 c1 fd 3f f1 90 08 40 af a6 03 40 9b 21 0d 40
       1.9824815 2.1338465 2.0570486 2.205176
0000a0 a7 d8 1f 40 c1 ae 42 40 d8 d5 00 40 1c 1f 1b 40
       2.4975984 3.0419161 2.013052 2.4237738
0000b0 10 cb 1c 40 c4 92 be 3f 2e 5a f7 3f 68 e1 01 40
       2.449894 1.4888539 1.9324396 2.0293827
0000c0 eb b7 24 40 09 d6 e3 3f 9e e0 1a 40 c9 c0 36 40
       2.5737255 1.7799693 2.4199595 2.8555167
0000d0 fa 93 10 40 c1 68 47 40 83 12 d5 3f 9d 1e 1e 40
       2.2590318 3.1157687 1.6646274 2.4706185
0000e0 1a e4 3f 40 fd 99 36 40 e5 0a 1f 40 04 70 4a 40
       2.9982972 2.8531487 2.48504 3.163087
0000f0 72 97 28 40 28 7b 1d 40 7b b2 23 40 1d 1a 01 40
       2.6342435 2.4606419 2.5577686 2.0172188
000100 dc d6 57 40 5e 8a 40 40 e0 3b 40 40 30 fc 3f 40
       3.372489 3.0084453 3.0036545 2.9997673
000110 f8 be 26 40 f9 c5 f8 3f cb 76 3c 40 54 4c 2d 40
       2.6054058 1.9435416 2.9447505 2.7077837
000120 11 ad e0 3f 15 4f 09 40 c6 f1 0c 40 b3 37 1a 40
       1.7552816 2.1454518 2.2022567 2.4096496
000130 c0 ac 15 40 53 02 47 40 7e 8b 0e 40 56 95 18 40
       2.3386688 3.1095169 2.227264 2.3841147
000140 7a 86 1c 40 26 70 25 40 26 4e 32 40 bd f6 f7 3f
       2.4457078 2.58497 2.7860198 1.9372174
000150 be ca 0c 40 2c 15 1f 40 a5 25 20 40 e4 1e 14 40
       2.1998744 2.4856672 2.5022976 2.3143854
000160 5e 2c 31 40 d8 26 08 40 a0 6b f3 3f 89 4a 22 40
       2.768333 2.1273708 1.901722 2.5357993
000170 24 d6 cd 3f 43 f1 1e 40 34 2a 11 40 c3 96 d9 3f
       1.6080976 2.4834754 2.2682009 1.6999134
000180 ed 3e 2d 40 a6 f5 29 40 1c 74 33 40 be 96 1c 40
       2.7069657 2.6556182 2.8039618 2.4467006
000190 54 8e 29 40 3a fd 08 40 6f fd 0e 40 f0 62 16 40
       2.649312 2.1404557 2.2342184 2.3497887
0001a0 53 fb 20 40 c3 26 bd 3f 05 c7 a3 3f d7 ca e0 3f
       2.5153396 1.4777454 1.2795111 1.7561902
0001b0 87 22 1c 40 33 c1 35 40 88 98 29 40 a7 aa 3a 40
       2.4396074 2.839917 2.6499348 2.9166658
0001c0 80 25 42 40 41 18 2a 40 b3 7f 0a 40 ce 8f 29 40
       3.0335388 2.6577303 2.1640441 2.6494021
0001d0 5e dd 0c 40 9f 40 31 40 cd c8 26 40 e7 dd 14 40
       2.2010112 2.7695692 2.606006 2.3260438
0001e0 22 a9 14 40 92 00 0f 40 5f de 20 40 88 57 17 40
       2.322823 2.2344098 2.5135725 2.3647175
0001f0 b9 f2 2c 40 b1 bb 14 40 ed d5 1b 40 e7 26 41 40
       2.7023146 2.3239558 2.434932 3.0179994

model.encoder.down.0.block.0.conv1.offset f4 [1, 128, 1, 1]
000000 da 28 32 bc 7b f6 0e bc 6a f4 13 bc d3 15 46 3b
       -0.010873998 -0.008725758 -0.009030441 0.003022541
000010 4e 4d 2e 3c ca 2c bf 3b f4 9c c3 bb 7c d3 01 bc
       0.010638548 0.0058341967 -0.005969638 -0.007923957
000020 0e 7e 37 bc d4 44 43 bc 52 19 e7 3b 44 69 20 bb
       -0.011199487 -0.011918265 0.007052579 -0.0024476806
000030 1b 90 01 3c ca 0a 15 bc 55 2f bc ba af 39 10 3c
       0.007907893 -0.009096811 -0.0014357368 0.008802815
000040 14 d9 14 3c 80 98 2a bc cb 51 5f 3c 03 0f 59 3c
       0.009084959 -0.010412335 0.013630341 0.013248208
000050 35 9b 4e bc b3 01 85 bb 44 c0 62 3c 4c 8f ab 3b
       -0.012610246 -0.0040590405 0.013839785 0.005235588
000060 49 e5 24 3c d9 77 88 3a cc 91 34 3c ba c9 2b bc
       0.0100644315 0.0010411694 0.011021089 -0.010485107
000070 ae 5c 25 3c 94 92 20 bc 5d 0b 2c bc 9a 8e ed 3b
       0.010092897 -0.009800572 -0.010500756 0.0072496654
000080 4f b6 0c 3c 75 a4 15 3c 24 9f b4 bb 64 24 3c 3c
       0.008588388 0.009133448 -0.005512135 0.011483286
000090 7f 14 d1 bb 40 d6 3b 3c 5b 2f e9 3b b9 96 6d 3b
       -0.006380617 0.011464655 0.007116241 0.0036253168
0000a0 ac c2 1b bb 8b 24 59 3b 2d e4 21 3c ec 74 bf bb
       -0.0023767157 0.0033133354 0.0098810615 -0.0058427956
0000b0 69 5e 5c bc 30 6e de 3b c5 ca 08 bc 2f c3 3c bc
       -0.0134502435 0.0067880377 -0.008349125 -0.011521145
0000c0 63 65 5f bc 3d e8 40 3c 33 a3 29 bc 90 6a d4 3a
       -0.013635012 0.01177412 -0.010353851 0.0016206075
0000d0 68 e6 24 bc ff 5f 89 bb 01 af 37 bb ec 90 2c bc
       -0.010064699 -0.004192352 -0.0028027894 -0.010532599
0000e0 89 45 35 3c 1b 91 ef 3b a6 e7 1d 3c 46 17 09 bc
       0.011063942 0.007310999 0.009637749 -0.008367365
0000f0 c7 1e 2e 3c 53 ce df bb 0e eb 3d 3c 63 fd 5d 3c
       0.010627455 -0.0068300157 0.011591686 0.013549182
000100 b4 ba 32 3c 68 46 1c bc 7c 74 37 3c fc 9e 48 3c
       0.010908771 -0.0095382705 0.011197206 0.012244936
000110 97 28 0e bc cd 75 89 bb 9e f6 21 bc d1 fd 33 bc
       -0.00867667 -0.004194951 -0.009885458 -0.0109858075
000120 f8 aa 1c 3c f5 d7 ea bb 94 50 c6 3a 2d 83 39 bc
       0.0095622465 -0.0071668574 0.0015130215 -0.011322779
000130 2f 4c 3f 3a 1a a1 64 3c ab c3 a6 ba 94 71 be 3b
       0.0007297424 0.013954425 -0.0012723109 0.0058118794
000140 8b 1a cb ba 0a de 54 bb a6 f6 1b 3b 0f 34 6a 3b
       -0.0015495581 -0.0032480978 0.0023798137 0.0035736596
000150 dc 4f 14 3c cd d5 d6 bb be f4 f4 3b 51 e9 19 bc
       0.009052243 -0.0065562488 0.0074754646 -0.009394006
000160 8b c0 8d bb 07 17 a0 3b e3 5d 5e bc 25 ad 66 3c
       -0.0043259314 0.0048855576 -0.013572189 0.014079367
000170 72 23 18 bc eb 05 2f 3c 8e 89 2e bc 3a b0 fb 3b
       -0.009285795 0.010682563 -0.010652913 0.00768092
000180 cd 73 93 bb f2 f2 90 bb bb ad 19 3a c4 1f 19 3b
       -0.0044998885 -0.0044234926 0.00058623747 0.002336488
000190 4b 97 16 bc 0c 46 c5 3b db 02 09 bc 3f 5d f2 bb
       -0.0091913445 0.006020313 -0.008362497 -0.0073963697
0001a0 93 0e 60 bc ed 9f d4 3b 7a 7d 15 bc 41 a3 76 bc
       -0.01367535 0.006488791 -0.009124154 -0.015053571
0001b0 7c 77 07 bc 7c 9f f3 bb 04 1f ba bb 2a 6f a1 3b
       -0.008268233 -0.0074347835 -0.005679967 0.004926582
0001c0 ee e8 8c 3b 08 a3 7d 3c 81 21 e7 3b 4f f0 53 3a
       0.0043002283 0.015480764 0.0070535545 0.000808482
0001d0 29 39 be 3b 6b 9d fb 3b df a4 af 3b 87 39 f2 3b
       0.005805154 0.007678678 0.0053602303 0.0073921117
0001e0 61 dd 0a 3c 24 d5 32 bb 51 cf 36 bb 99 a9 1d bc
       0.008475632 -0.0027287686 -0.0027894566 -0.009622955
0001f0 21 10 20 3c ba 97 1c 3c 50 a5 84 3b 6f 22 63 bc
       0.00976947 0.009557659 0.004048027 -0.01386319

model.encoder.down.0.block.0.conv1.weight_quantizer_0.x_min f4 [128, 1, 1, 1]
000000 28 a2 14 bf 3b cf b2 be 38 86 93 bf b1 92 d2 be
       -0.5805993 -0.3492373 -1.1525335 -0.41127542
000010 f7 12 a3 be d9 13 0b bf 89 63 c9 be 69 31 fe be
       -0.31850407 -0.5432716 -0.39333752 -0.49647072
000020 0d 6a d2 be 67 de d4 be 48 23 d4 be 00 1a 6a bf
       -0.41096535 -0.4157593 -0.41433167 -0.9144592
000030 4c d4 98 be dd 6c 47 bf d3 1d 3a bf 2a 44 81 be
       -0.2984947 -0.7790049 -0.7270176 -0.25247318
000040 2f 12 2f bf 21 a2 d3 be 9f 7f f0 be 4e f5 c8 be
       -0.6838712 -0.41334632 -0.46972367 -0.39249653
000050 25 a4 d2 be 37 d3 81 be 94 ea e7 be 75 6b b1 be
       -0.41140857 -0.25356457 -0.45296156 -0.34652296
000060 3c e9 87 be 0f 81 59 be 25 81 ad be 53 0c 74 be
       -0.2654513 -0.21240638 -0.33887592 -0.23832826
000070 58 4d c8 be 1f d1 9a be ba 0a 93 be 50 a2 ca be
       -0.3912151 -0.30237672 -0.2871912 -0.3957696
000080 57 0c ab be eb 51 98 bf 29 f3 6f bf d5 96 b5 be
       -0.33407852 -1.1899999 -0.9373041 -0.35466638
000090 2e d7 56 bf 47 52 30 bf 47 87 34 bf 9f 2c 97 be
       -0.8392209 -0.68875545 -0.70518917 -0.2952623
0000a0 cf ca a4 be 45 a1 3b bf f7 69 f8 be 1f 0a 87 bf
       -0.3218598 -0.7329295 -0.48518345 -1.0549964
0000b0 fd 06 3d bf f7 cf ad be be cd 55 bf 61 e4 f1 be
       -0.7383879 -0.33947727 -0.8351706 -0.47244552
0000c0 db 78 83 be 05 cf 85 be ec fc b0 be 3b 83 37 bf
       -0.25678143 -0.26134506 -0.34567964 -0.71684617
0000d0 7d 22 a1 be 74 19 a9 be 2f 1f 9e be 58 94 69 be
       -0.31471625 -0.33027232 -0.30883166 -0.22810495
0000e0 d1 9b 38 bf e8 1d 88 be 89 29 aa be 54 9a f7 be
       -0.72112757 -0.26585317 -0.33234814 -0.4835993
0000f0 a2 96 1c bf bc 3a 01 bf 82 96 78 bf 11 aa f5 be
       -0.6116735 -0.50480247 -0.97104657 -0.47981313
000100 07 37 34 bf 8b 7c b3 be 43 e9 3b bf 57 cb bf be
       -0.70396465 -0.35055956 -0.73402804 -0.37459823
000110 da 76 98 be 40 8c ab be 88 9e e0 be 3e 1f f5 be
       -0.29778177 -0.3350544 -0.4387095 -0.47875398
000120 51 96 e4 be 7d e4 dd be f4 c4 a9 be 4a b0 6a bf
       -0.44645932 -0.43338385 -0.33158076 -0.91675246
000130 60 b6 19 bf d7 a8 d9 be 46 75 ae be 3d 73 cf be
       -0.6004391 -0.42511627 -0.34073848 -0.40517607
000140 b4 d6 f1 be 0f 8c cc be 44 2f 7c be 76 33 3e bf
       -0.47234118 -0.39950606 -0.24627405 -0.74297273
000150 af ec fa be 30 b3 88 be 21 f2 52 bf 51 0c ce be
       -0.490087 -0.2669921 -0.8240071 -0.40243772
000160 e1 8b bd be 7a 0c f9 be f5 0b a4 be 5d 43 d9 be
       -0.37020782 -0.4864233 -0.32040372 -0.42434207
000170 d2 b8 39 bf d7 6a 96 be 0a f6 de be 60 fd ed be
       -0.7254764 -0.29378387 -0.43547088 -0.46482372
000180 30 dc fd be 62 0e 01 bf 0d b3 b5 be e7 2d 18 bf
       -0.49582052 -0.5041257 -0.35488167 -0.5944504
000190 1a 3a 31 bf 62 af 18 bf 9d 12 95 be ea 18 4f bf
       -0.6922928 -0.5964261 -0.29115763 -0.8089739
0001a0 d1 3d 5c bf 88 93 c8 be 31 7d b0 be 69 73 c1 be
       -0.86031824 -0.39175057 -0.34470513 -0.37783363
0001b0 02 12 b9 be f2 24 8a be f7 13 8b be 3a 26 88 be
       -0.3614655 -0.26981312 -0.2716367 -0.26591665
0001c0 04 cf 04 bf f6 86 7d bf ff 63 88 bf d8 2d bb be
       -0.5187838 -0.9903406 -1.0655516 -0.36558414
0001d0 81 7e b3 be 98 90 37 bf f9 d4 a1 be 4a 22 1f bf
       -0.35057452 -0.7170501 -0.31607798 -0.62161696
0001e0 1e 01 16 bf fa d4 4f bf 03 37 e7 be 4b 24 b2 be
       -0.58595455 -0.8118435 -0.45159158 -0.34793314
0001f0 ba 80 08 bf ef e3 6a bf b5 16 8f be f3 38 84 be
       -0.5332142 -0.9175405 -0.27947012 -0.258247

model.encoder.down.0.block.0.conv1.weight_quantizer_0.x_max f4 [128, 1, 1, 1]
000000 e8 13 8f 3e 2e 02 87 3e 5a e6 bd 3e 7b f4 8d 3e
       0.27944875 0.2636885 0.37089807 0.27725586
000010 6a 13 80 3e 05 e2 b9 3e 52 ba 87 3e 80 5f 89 3e
       0.25014812 0.36305252 0.2650934 0.26830673
000020 e2 4f b5 3e cf 5d 9d 3e 67 a4 8f 3e d5 11 f1 3e
       0.35412508 0.30735633 0.28055117 0.47083917
000030 0f 4f 99 3e 25 7b bc 3e bc 6d a0 3e 30 fb b5 3e
       0.2994313 0.36812702 0.3133372 0.35543203
000040 07 79 5e 3e c6 de 9b 3e d5 d1 75 3e 81 25 57 3e
       0.21725856 0.304434 0.24005826 0.210104
000050 ec 03 88 3e 14 36 89 3e 01 ef cb 3e 4a 8e 8a 3e
       0.26565492 0.2679907 0.39830783 0.27061683
000060 78 cd b2 3e f4 07 76 3e 4b af 8b 3e 43 30 32 3e
       0.34922385 0.24026471 0.27282175 0.17401223
000070 18 88 90 3e e1 58 ab 3e a3 ec 78 3e 62 d4 7e 3e
       0.2822883 0.33466247 0.2430902 0.24885705
000080 5b fe 82 3e e0 21 90 3e 0f 26 b9 3e dd e0 54 3e
       0.25584683 0.28150845 0.3616185 0.20788904
000090 a5 9d 38 3e 27 20 a7 3e b3 34 bf 3e 5f d7 88 3e
       0.18028887 0.32641718 0.37344894 0.26726815
0000a0 c0 d7 c5 3e a4 e3 84 3e 83 64 a2 3e 45 8a 7c 3e
       0.38641167 0.25954926 0.3171731 0.2466212
0000b0 a5 90 ab 3e 1c 8b 58 3e 20 e8 8f 3e 7b 7f b6 3e
       0.33508793 0.21146816 0.28106785 0.35644135
0000c0 47 b0 84 3e 27 88 63 3e 50 ee 8b 3e c0 f9 be 3e
       0.2591574 0.22219907 0.27330256 0.3729992
0000d0 16 c5 8c 3e 46 61 a3 3e 5f bb a7 3e 9d f8 6b 3e
       0.27494115 0.3191015 0.3276014 0.23044057
0000e0 a7 58 a7 3e cc a0 a7 3e a6 86 8f 3e 7b a9 87 3e
       0.32684824 0.32739866 0.28032416 0.2649649
0000f0 25 0d e0 3e cc b5 b4 3e 33 ed 87 3e d2 5b 7c 3e
       0.43760028 0.3529495 0.26548156 0.24644402
000100 7a 5d 96 3e e3 e0 57 3e 82 58 89 3e 44 78 67 3e
       0.29368192 0.21081881 0.2682534 0.22604471
000110 59 b1 6e 3e 29 61 70 3e b3 1f a7 3e 5f 83 80 3e
       0.2330984 0.23474564 0.32641372 0.25100228
000120 64 cc 65 3e 22 ef bd 3e 19 35 c6 3e e3 a3 c8 3e
       0.2244125 0.37096506 0.38712385 0.39187536
000130 15 18 8b 3e 87 3f 82 3e 06 f4 9f 3e f5 27 9f 3e
       0.2716681 0.25439093 0.31240863 0.31085172
000140 1f 2f 9d 3e 15 dc 8f 3e 71 f9 bd 3e 4f 0d 9d 3e
       0.30700013 0.28097597 0.3710437 0.30674216
000150 b1 ab 99 3e 0b 22 49 3e 03 a8 79 3e c9 9b a5 3e
       0.30013803 0.19641893 0.24380498 0.32345417
000160 9a 69 97 3e 4b 5e aa 3e 93 d6 eb 3e 36 d9 ce 3e
       0.29572755 0.33275065 0.46062145 0.40400094
000170 b1 ac 80 3e 43 74 93 3e 5b f9 69 3e b8 00 95 3e
       0.25131753 0.28799638 0.22849028 0.2910211
000180 3e de 98 3e 9c e2 a9 3e a0 6a 9c 3e f4 58 9c 3e
       0.29857057 0.33180702 0.30550098 0.30536616
000190 2b f0 a2 3e 67 aa 8f 3e 19 3b 8c 3e 38 2a bc 3e
       0.3182386 0.28059694 0.27388838 0.3675096
0001a0 6f 6e 6f 3e 5b 02 7d 3e 35 3c 87 3e cc a9 c5 3e
       0.23381971 0.2470793 0.26413122 0.38606107
0001b0 46 22 8c 3e c2 ff 98 3e 9f 27 86 3e 9a 33 83 3e
       0.273699 0.29882628 0.26202103 0.25625306
0001c0 42 e0 9c 3e 60 7b bf 3e 73 84 58 3e ce d5 82 3e
       0.30639845 0.37398815 0.21144275 0.25553745
0001d0 8b 00 8c 3e 5b e5 60 3e 67 df 8b 3e 62 9e e0 3e
       0.27344164 0.21962492 0.2731888 0.43870836
0001e0 64 0d 91 3e 61 a5 a9 3e f7 2a 8d 3e 13 17 8d 3e
       0.2833053 0.33133987 0.27571842 0.27556667
0001f0 d8 25 c2 3e 0c 9f 9c 3e 21 38 8b 3e 88 dd 89 3e
       0.37919497 0.30590093 0.2719126 0.26926827

model.encoder.down.0.block.0.norm2.weight f4 [128]
000000 07 f7 33 3f 74 ff 60 3f 33 cc 5e 3f 7b 4e 55 3f
       0.7029881 0.8788979 0.87030333 0.83322877
000010 98 36 49 3f 4b d1 a2 3f 44 a4 4e 3f ea 86 74 3f
       0.7859893 1.2720121 0.807194 0.9551836
000020 9f 66 6c 3f 26 5c 6b 3f 7c 18 5c 3f 4a e7 8a 3f
       0.9234409 0.9193748 0.8597486 1.0851834
000030 c1 01 5d 3f 9e fc 5c 3f de 5a 64 3f cd 0b 2d 3f
       0.863308 0.86322963 0.8920115 0.6759613
000040 40 00 2e 3f 49 f6 55 3f 38 d1 4c 3f 1a b0 4a 3f
       0.6796913 0.83578926 0.8000674 0.7917496
000050 59 2a 73 3f 8f 50 51 3f 3e 3c 80 3f 39 7a 4b 3f
       0.9498649 0.8176355 1.0018384 0.7948337
000060 09 61 57 3f 97 0e 5a 3f fc ff 8a 3f 55 3c 54 3f
       0.8413244 0.8517851 1.085937 0.8290456
000070 d4 4b 54 3f 96 2a 93 3f e4 61 61 3f 73 ff 1b 3f
       0.82928205 1.1497371 0.88039994 0.6093666
000080 09 55 49 3f 27 7d 89 3f a8 5c 88 3f 0b 01 47 3f
       0.7864538 1.0741318 1.0653276 0.77735966
000090 f1 2e 44 3f 04 57 4e 3f fe 65 50 3f ad 62 52 3f
       0.76634127 0.80601525 0.8140563 0.8218182
0000a0 a3 95 54 3f fb 4c 80 3f b2 15 7e 3f c3 fa 9a 3f
       0.8304083 1.0023493 0.99251854 1.2107776
0000b0 b7 24 65 3f 07 6a 42 3f 67 6d 73 3f 26 c6 6f 3f
       0.8950915 0.75943035 0.9508881 0.93661726
0000c0 97 46 50 3f 90 ca 73 3f 67 ee 0e 3f 07 80 91 3f
       0.8135771 0.9523096 0.55832523 1.1367196
0000d0 98 4c 49 3f 13 a6 28 3f a0 9a 90 3f 9c af 74 3f
       0.786325 0.6587841 1.1297188 0.9558046
0000e0 39 f7 5d 3f 0d 86 41 3f d8 89 72 3f 25 ef 8e 3f
       0.86705357 0.7559517 0.9474158 1.1166731
0000f0 01 55 9e 3f f0 df 88 3f d2 59 88 3f cc 74 93 3f
       1.2369691 1.069334 1.0652411 1.1520019
000100 97 5e 42 3f 6e 76 3d 3f 23 99 83 3f c3 e1 2a 3f
       0.7592558 0.74008834 1.0281109 0.66750735
000110 52 fe 3e 3f a5 8a 3f 3f 7c 3f 89 3f 78 6c 6a 3f
       0.7460681 0.7482093 1.0722499 0.9157176
000120 03 a3 6d 3f 39 77 8f 3f 13 fb 58 3f fa 8d 53 3f
       0.9282686 1.1208259 0.8475811 0.82638514
000130 a7 31 6e 3f 0a 2e 31 3f dc da 40 3f 5f 63 88 3f
       0.93044513 0.69210875 0.7533395 1.0655326
000140 49 95 46 3f f2 bc 33 3f a2 82 74 3f 18 28 6b 3f
       0.7757154 0.7021018 0.9551183 0.91858053
000150 00 4c 77 3f b1 2f 43 3f 67 b8 d9 3f b2 a4 6f 3f
       0.9660034 0.76244646 1.70094 0.9361068
000160 d4 07 3a 3f e8 79 38 3f 72 09 2b 3f 5b a5 5d 3f
       0.72668195 0.72061014 0.6681129 0.8658044
000170 63 62 66 3f f8 0f 34 3f a5 43 45 3f 5b 99 63 3f
       0.89993876 0.70336866 0.7705634 0.88905877
000180 0d 3e 6f 3f 5d 53 84 3f a3 1e 53 3f f2 f2 99 3f
       0.93454057 1.033794 0.8246862 1.2027266
000190 3b 15 89 3f 45 32 7f 3f 0f c5 47 3f 40 75 81 3f
       1.0709604 0.9968608 0.7803506 1.0113907
0001a0 04 79 a5 3f d5 92 68 3f 46 58 4b 3f 3e 4f 68 3f
       1.2927556 0.9084905 0.7943157 0.90745914
0001b0 5d 39 87 3f 27 68 5a 3f fe 65 55 3f d1 20 59 3f
       1.0564381 0.85315174 0.8335875 0.848157
0001c0 a5 fe 71 3f cd cd 31 3f 16 5c 94 3f 80 69 4d 3f
       0.9452918 0.6945465 1.1590602 0.80239105
0001d0 f2 2a 1e 3f 7e 6e 7d 3f 3f a1 7b 3f 33 82 97 3f
       0.6178428 0.9899672 0.98292917 1.1836609
0001e0 98 a0 7a 3f 8e 5c cd 3f 19 25 65 3f 47 e3 50 3f
       0.97901297 1.604387 0.8950973 0.815968
0001f0 77 28 81 3f 98 9f 97 3f a6 1c 47 3f 1f b0 69 3f
       1.0090474 1.1845579 0.7777809 0.91284364

model.encoder.down.0.block.0.norm2.bias f4 [128]
000000 cb 40 51 be ad 69 e9 bd b3 de 31 be aa 04 0c be
       -0.20434873 -0.11397109 -0.1737011 -0.13673654
000010 a1 16 63 be 5e 0c ee 3c 04 81 5e be 88 cd 51 be
       -0.22176601 0.029058632 -0.21728903 -0.2048856
000020 35 fb 88 be 16 35 55 be c8 2e 95 be 31 6f e2 3c
       -0.26754156 -0.20821032 -0.29137254 0.02764091
000030 ee b0 e6 bd 35 92 7e be d0 0b 8e bc 71 09 35 be
       -0.112642154 -0.24860461 -0.017339617 -0.17679383
000040 65 22 4c be 36 8a cb bd ba 24 67 bd 18 da c9 bd
       -0.19934995 -0.09938471 -0.05643151 -0.09856051
000050 10 23 71 bd 1d 6d b9 bd 99 91 fe bc b8 c2 4a be
       -0.05887133 -0.09054015 -0.031075286 -0.19800842
000060 41 38 72 bd d2 5a f8 bd 69 c1 d3 bb cf 69 19 be
       -0.05913568 -0.121266976 -0.0064622653 -0.14981769
000070 f4 46 7a be 4a e1 a5 bd fb 70 97 bd 0f 69 c1 be
       -0.24441129 -0.08099611 -0.07394596 -0.37775466
000080 53 a5 54 be b6 15 1b be be a9 77 be a1 36 73 be
       -0.20766191 -0.15145001 -0.24185845 -0.23751308
000090 39 3c 4e be c5 e8 d5 bd 6a c3 57 be 51 25 d7 bd
       -0.2014016 -0.10444788 -0.21070638 -0.105051644
0000a0 95 eb 04 be 60 ad 96 bd 16 82 95 be 8f 28 36 be
       -0.12980492 -0.073572874 -0.2920081 -0.1778891
0000b0 ba a8 68 be 2b 54 f4 bc c1 47 63 bd 45 d7 90 be
       -0.22720614 -0.02982529 -0.05548835 -0.28289238
0000c0 34 89 f6 bd f0 36 8d bd 9e bf e2 be 4a 8c b8 bc
       -0.12037888 -0.06895244 -0.44286817 -0.022527833
0000d0 97 24 b8 bd 4e f5 d1 be 61 8c 8d bc 06 4a 10 bd
       -0.08991354 -0.41007465 -0.017278852 -0.035226844
0000e0 e8 50 88 be fe 9b 6d be 17 60 1d bd b2 bd 0a bb
       -0.26624227 -0.23204038 -0.038421717 -0.0021170196
0000f0 94 a9 c6 3d 9f 4e 1e be c4 5c 8e bd 97 ab 0d be
       0.09700313 -0.15459679 -0.069512874 -0.13834988
000100 f8 3c a0 be 67 e4 ca bc ec 97 05 be 66 a2 84 be
       -0.31296515 -0.024767114 -0.13046235 -0.2590515
000110 d4 66 74 be 5e 78 6b be 08 ec d0 bc 49 7b 87 bd
       -0.23867351 -0.22995135 -0.025503173 -0.06615312
000120 4a a4 c2 bd f0 be 6c b9 0c 78 1f be 50 db 78 be
       -0.09503992 -0.00022577844 -0.15573138 -0.24302411
000130 4c 94 2e bc e5 f5 a0 be 74 ac 88 be 8a 7e 82 bd
       -0.010655474 -0.31437603 -0.2669407 -0.06371792
000140 fa 07 8d be 09 ae 99 be 2d 30 9f 3c cc f1 03 be
       -0.27545148 -0.3001559 0.019432152 -0.12885207
000150 0b 5e db bd 9e e0 1a be 08 07 6c 3d fa b4 22 be
       -0.10711297 -0.15124747 0.057623893 -0.1588935
000160 f5 f7 02 be 4a a9 41 be 59 1d 8d be 97 66 c0 bd
       -0.127899 -0.18912235 -0.27561453 -0.093945675
000170 86 cd bc bd a5 bc 74 be 6e b9 29 be f8 cc 0e bd
       -0.09218888 -0.23900087 -0.16574642 -0.034863442
000180 8f 8c 62 be 4f b5 b8 be f6 90 95 be 79 06 00 bd
       -0.22123931 -0.36075827 -0.2921216 -0.031256173
000190 87 3b 7d be 11 e5 77 be 19 1c b1 be 46 51 01 bd
       -0.24729739 -0.24208476 -0.3459175 -0.03157165
0001a0 c3 52 ea bd 82 33 9b bc 4d 5b c7 be 70 d5 8a be
       -0.11441567 -0.01894546 -0.38936844 -0.27115965
0001b0 dc b1 82 bc b9 80 8d bd 77 51 19 be 21 53 2a be
       -0.01595395 -0.069093175 -0.14972483 -0.16633274
0001c0 5d b5 2d be 61 4b b6 be e3 71 0f bd 47 ff 67 be
       -0.16963716 -0.35604385 -0.03502072 -0.22655974
0001d0 87 8d b5 be 85 22 84 bd 50 59 8f bd ab b3 85 3b
       -0.3545954 -0.064518966 -0.06999457 0.004080256
0001e0 71 13 86 be 83 17 1a 3d 12 64 8b be 15 d4 08 be
       -0.26186708 0.03762008 -0.27224785 -0.13362153
0001f0 55 fe 56 3c d6 ec ed bd 20 1f 65 be 7c d6 1c be
       0.013122161 -0.116174385 -0.22375154 -0.15316194

model.encoder.down.0.block.0.conv2.scale_factor f4 [1, 128, 1, 1]
000000 2e fa 17 40 26 fc 1b 40 dd 7f 22 40 97 d9 0c 40
       2.3746448 2.437265 2.5390542 2.2007806
000010 2c ac 30 40 8e 94 02 40 86 e1 30 40 69 2b 1d 40
       2.7605085 2.040317 2.7637649 2.4557745
000020 43 90 f5 3f 7d a0 0d 40 56 a0 14 40 68 71 a1 3f
       1.918465 2.2129204 2.3222861 1.2612734
000030 9c 74 2c 40 bf d5 28 40 91 41 32 40 e1 33 2a 40
       2.6946173 2.638046 2.7852519 2.6594164
000040 cd 08 fb 3f 1e b8 3b 40 cd cf 2b 40 a7 7b 06 40
       1.9612061 2.9331126 2.6845582 2.1012971
000050 99 58 29 40 85 41 0e 40 42 a3 0a 40 21 b1 2b 40
       2.6460326 2.222749 2.1662145 2.682686
000060 82 77 01 40 82 5e 28 40 f8 1c ff 3f 89 2e 0b 40
       2.0229192 2.6307683 1.9930716 2.1747153
000070 f2 31 ec 3f a3 68 09 40 d3 dd ec 3f 5b ff e1 3f
       1.8452742 2.1470115 1.8505195 1.7656053
000080 38 4f 2d 40 30 45 08 40 7b f9 09 40 53 b7 0e 40
       2.7079601 2.1292229 2.155852 2.2299392
000090 37 26 bc 3f 1a ef 1e 40 54 27 2f 40 50 46 ff 3f
       1.4699162 2.4833436 2.7367754 1.9943333
0000a0 28 b2 63 40 8b 83 42 40 31 56 1e 40 6c 45 11 40
       3.5577488 3.0392787 2.4740107 2.2698622
0000b0 28 1e 15 40 61 26 22 40 f1 e7 65 40 df 4c 44 40
       2.3299656 2.5335925 3.5922816 3.0671918
0000c0 f9 63 f3 3f 3c b1 f1 3f c7 00 00 40 e3 d9 0f 40
       1.9014884 1.8882213 2.0000474 2.2476737
0000d0 73 81 02 40 ab dc 16 40 55 03 e3 3f b3 19 04 40
       2.039151 2.3572185 1.7735392 2.0640686
0000e0 c3 b9 2f 40 fa b3 1f 40 74 5d 21 40 eb fd 1a 40
       2.745713 2.49536 2.521329 2.421748
0000f0 03 57 37 40 0b eb 0d 40 14 f1 17 40 ce 37 e7 3f
       2.8646858 2.217471 2.3740892 1.8063905
000100 0b 33 0b 40 78 16 1e 40 e7 ab 25 40 92 18 e6 3f
       2.1749904 2.4701214 2.588617 1.7976248
000110 06 19 0d 40 f9 98 d8 3f 6f 28 ea 3f ae 81 ea 3f
       2.2046523 1.6921684 1.8293589 1.8320825
000120 a5 ca fc 3f 5d 00 eb 3f 7c ac 20 40 02 3e 28 40
       1.9749342 1.8359486 2.5105276 2.6287847
000130 6a 40 25 40 41 14 e6 3f 4f da 21 40 fd 20 03 40
       2.5820565 1.7974931 2.5289495 2.0488884
000140 34 d0 17 40 58 a2 00 40 cc 1f 0a 40 68 d0 31 40
       2.3720827 2.0099087 2.1581907 2.778345
000150 e4 69 19 40 b5 86 f6 3f c2 30 88 3f f6 95 46 40
       2.397088 1.9259859 1.063988 3.102903
000160 88 19 26 40 97 d1 48 40 d9 7d 7b 40 57 20 52 40
       2.5953083 3.1377923 3.9295561 3.2832239
000170 d9 86 f6 3f c1 75 2b 40 3c 0b 08 40 f0 a3 17 40
       1.9259902 2.6790621 2.1256857 2.369381
000180 c8 09 f4 3f b6 93 0c 40 50 24 1e 40 72 a8 05 40
       1.9065485 2.1965156 2.4709663 2.088406
000190 3e 7d 21 40 4d db 05 40 a4 97 26 40 6b 90 2a 40
       2.5232692 2.09151 2.6030054 2.6650646
0001a0 a5 96 f0 3f 71 9d 23 40 32 83 1d 40 d1 37 2b 40
       1.8795973 2.5564845 2.4611325 2.6752818
0001b0 b6 aa f2 3f 03 73 03 40 f0 13 18 40 52 3a 06 40
       1.8958347 2.0538948 2.376217 2.0973096
0001c0 bf 76 09 40 35 ad 1d 40 40 69 0f 40 6b a7 12 40
       2.1478727 2.4636967 2.240799 2.2914684
0001d0 d6 bc 11 40 b9 8b c8 3f 9f 46 0a 40 21 79 11 40
       2.2771506 1.566764 2.1605604 2.2730181
0001e0 49 80 25 40 1e 0c 0e 40 5b e8 44 40 28 63 33 40
       2.585955 2.2194896 3.0766819 2.802927
0001f0 47 61 5d 40 fa 8d 0b 40 0d 3d 0f 40 97 8c 23 40
       3.4590623 2.1805406 2.2381012 2.555456

model.encoder.down.0.block.0.conv2.offset f4 [1, 128, 1, 1]
000000 00 8e 6d bc fb c9 16 3c eb 4b 44 bc 63 70 1f 3c
       -0.0144991875 0.009203429 -0.011980991 0.009731385
000010 e6 01 01 3c 06 57 33 bb c2 9c ae bb 54 e5 eb 3b
       0.007873988 -0.0027365102 -0.0053287456 0.007198969
000020 70 32 09 3c 5e c7 8a bb c3 e2 aa 3b 0e 5a da 3b
       0.008373842 -0.004235192 0.0052150204 0.0066635674
000030 67 18 9b 39 3b d7 28 3c 2f b6 52 bc 9c 09 06 bb
       0.00029582085 0.010305221 -0.012860819 -0.0020452505
000040 b4 1c f1 bb bd 2d 16 3c c0 27 a6 bb 41 e3 06 3c
       -0.007358158 0.009166178 -0.0050706565 0.0082328925
000050 02 99 02 3c d1 cf a3 bb 21 93 22 3c 1f d1 c6 3b
       0.00797105 -0.004999139 0.009922774 0.0060674096
000060 12 5b 4a bc e6 1a 27 3b 6b 00 25 3c 54 ed fc bb
       -0.012350814 0.002549821 0.0100709 -0.0077187214
000070 5b 61 15 bc 31 bd 6a 3b a1 82 44 3c 4f 0b df 3b
       -0.00911745 0.0035818333 0.011994035 0.006806768
000080 3d 42 7b 3c fc d7 c4 bb 8c 84 56 3c 40 f1 71 3b
       0.015335617 -0.0060071927 0.013093125 0.0036917478
000090 ea ca 17 3c 2e 19 36 3c d6 ef 94 bb 54 27 1c bc
       0.009264687 0.011114402 -0.0045451922 -0.009530861
0000a0 0d cc 94 bb 0a 07 41 bc 74 ec 05 bb eb 95 1f 3c
       -0.0045409263 -0.011781463 -0.0020435126 0.009740333
0000b0 78 52 7f 3b c5 be eb bb 31 7b 8b 3b e5 85 08 bb
       0.0038959067 -0.0071943724 0.004256629 -0.002083176
0000c0 10 d2 11 3a fa ab ff bb df 42 62 3c c5 af 3c 3c
       0.0005562613 -0.0078024836 0.013809889 0.011516516
0000d0 40 11 de bb 4c 41 27 bc fb ac 0f 3c 94 40 f2 bb
       -0.0067769587 -0.010208439 0.008769269 -0.007392952
0000e0 ea 56 3d bc cb 24 56 3c 5b 1e 62 bc 56 19 b7 bb
       -0.011556366 0.013070296 -0.013801183 -0.005587737
0000f0 b3 fb 4b 3c f9 9d 02 3c 4d f9 77 bc b9 3d 42 bc
       0.0124501465 0.007972234 -0.0151351215 -0.011855536
000100 2d d3 0f bc 69 3e 44 3b fd 08 eb ba 3c 08 e8 3b
       -0.008778376 0.0029944426 -0.0017931756 0.0070810597
000110 53 75 30 3c 84 af 5f bc 38 41 8d bb 3e 8d 08 3c
       0.01077016 -0.013652686 -0.004310753 0.008334456
000120 60 1d 4c 3c 54 83 10 3c 20 9c 09 bc 56 a9 d1 bb
       0.012458175 0.008820374 -0.0083990395 -0.0063983602
000130 cb e8 62 3c 5d 55 ed bb ce 2c 20 bc 20 5e 05 bc
       0.0138494475 -0.007242842 -0.009776307 -0.008140117
000140 56 6a 3c bc 97 31 0c bc 34 be 09 bc cd 70 3f bc
       -0.011499962 -0.008556745 -0.008407164 -0.011684609
000150 e7 af ef bb fb a8 67 bc 60 49 1a 3c 3b 55 1d 3c
       -0.0073146704 -0.014139409 0.009416908 0.00960284
000160 4c fd eb 3b 41 00 08 3c 47 78 43 3c df de b9 3b
       0.007201826 0.008300842 0.011930532 0.0056723203
000170 fd 79 11 3c 26 12 74 3a d0 b8 0a bc 7e 62 0a bc
       0.008879182 0.00093105657 -0.008466914 -0.008446334
000180 a6 d0 3f bc 19 a7 c1 bb 20 0f 14 3c 65 f4 26 bc
       -0.0117074605 -0.005909812 0.009036809 -0.010190104
000190 f5 ad 1e 3b 17 4b ef 3b 8f be 15 bc 69 b8 0c 3c
       0.0024212573 0.0073026526 -0.009139671 0.008588889
0001a0 35 6f 23 bc 73 44 00 3c 48 de 11 3c dd a2 02 bc
       -0.009975244 0.00782882 0.008903094 -0.0079734
0001b0 4b 86 46 3c a0 4b 7c 3b ab 4f 09 bc 69 01 01 bc
       0.012116979 0.0038497224 -0.008380811 -0.007873871
0001c0 4e 6f 46 bc d4 38 6b bb e2 08 03 bc ec 36 e9 bb
       -0.012111498 -0.0035892026 -0.007997723 -0.007117143
0001d0 7b 62 41 bc 0a 22 de 3b 4c f5 15 bc 54 38 2f bc
       -0.011803265 0.00677896 -0.009152722 -0.010694582
0001e0 bb a2 20 3c 1a 16 0f bc 89 31 1f bc fe 7d 24 3c
       0.009804423 -0.008733297 -0.0097164 0.0100398045
0001f0 c7 8f 1d bc e0 50 30 3c 3b 5e 35 bb 4e 82 9a 3b
       -0.009616799 0.01076147 -0.0027674574 0.0047152406

model.encoder.down.0.block.0.conv2.weight_quantizer_0.x_min f4 [128, 1, 1, 1]
000000 a2 58 1e be 25 97 c8 be 76 e2 95 be 00 e3 38 be
       -0.15463498 -0.39177814 -0.29274338 -0.18055344
000010 c4 4e 7b be 7d ca b4 be fb d8 c1 be 73 0a 90 be
       -0.24541765 -0.35310736 -0.37860855 -0.28132972
000020 d8 1d 93 be ca db d0 be 18 2d 94 be 4c 05 53 be
       -0.28733706 -0.40792686 -0.28940654 -0.2060749
000030 00 4a e1 be 71 01 b8 be fa 44 79 be 9d a4 4e be
       -0.4400177 -0.359386 -0.24342719 -0.20179982
000040 3d f9 7a be f2 b5 b2 be c3 68 a8 be 13 b8 84 be
       -0.2450914 -0.34904438 -0.32892427 -0.25921687
000050 6c 90 d9 be 9f 47 88 be 32 b0 6b be ca 32 93 be
       -0.42492998 -0.26617143 -0.23016432 -0.28749686
000060 8b 4b 82 be 27 c9 c7 be 3e 26 95 be ae 4e 10 bf
       -0.2544826 -0.39020655 -0.2913074 -0.56370056
000070 ce 42 61 be 8a 26 55 be db ff 55 be c4 8a 66 be
       -0.2199814 -0.20815483 -0.20898382 -0.22513872
000080 8b 0d 91 be 1b a4 6e be a0 55 c4 be 32 3c b2 be
       -0.28330645 -0.23304789 -0.38346577 -0.3481155
000090 15 c0 84 be 6b 07 76 be 9a ab bd be ca 4d 74 be
       -0.25927797 -0.24026267 -0.37044984 -0.23857799
0000a0 9b 38 b5 be e5 01 87 be 27 c8 c1 be 36 e1 8c be
       -0.3539475 -0.26368633 -0.37848017 -0.27515572
0000b0 05 f9 4e be 24 77 d5 be ae 3e 36 be 76 4b 2a be
       -0.20212181 -0.4169246 -0.17797348 -0.16630349
0000c0 10 9c 08 bf b7 c3 e2 be 1c 76 98 be a4 e3 5f be
       -0.5336313 -0.44289944 -0.2977761 -0.21864182
0000d0 bc 7c 42 be 0e ce 82 be 51 20 87 be 08 a9 82 be
       -0.18992895 -0.25547832 -0.26391843 -0.25519586
0000e0 33 85 d7 be b6 7c ba be 78 67 7d be 00 94 c5 be
       -0.4209381 -0.36423272 -0.24746501 -0.38589478
0000f0 33 eb ac be 57 c7 bb be e7 85 61 be ff 33 89 be
       -0.33773193 -0.36675522 -0.22023736 -0.26797482
000100 16 b4 a8 be 59 ac 97 be 3a ad ac be 56 4a a3 be
       -0.32949895 -0.29623678 -0.3372591 -0.3189265
000110 bd 6f 97 be ec aa ab be e4 94 9f be 7d 78 6d be
       -0.29577437 -0.3352884 -0.31168282 -0.23190494
000120 f3 cb 93 be 60 36 88 be b2 71 a9 be 0f ae 2c be
       -0.28866538 -0.26603985 -0.33094555 -0.16863273
000130 dc 44 c7 be 5a 0e 8f be 51 f2 84 be fb ce ba be
       -0.38919723 -0.27940637 -0.25966123 -0.3648604
000140 7d 26 a2 be 32 51 8b be 8e 86 c2 be dc 37 b3 be
       -0.3166999 -0.27210385 -0.37993282 -0.35003555
000150 ce 77 8d be e0 4a 51 be c4 77 d3 be 0b 9f 77 be
       -0.27630466 -0.20438719 -0.4130231 -0.24181764
000160 94 8e 0d be 56 83 e1 be 4a f4 cb be 91 52 4a be
       -0.1382392 -0.44045514 -0.39834815 -0.19758059
000170 7b fa a5 be b3 b4 6f be 90 4c 50 be 6e 14 90 be
       -0.32417664 -0.23408775 -0.20341706 -0.28140587
000180 dd ce 89 be 1b 04 a6 be 33 31 8a be df 31 a8 be
       -0.26915637 -0.32425007 -0.2699066 -0.3285055
000190 66 f9 58 be ca 17 87 be a1 b3 a2 be e4 69 a5 be
       -0.21188888 -0.26385337 -0.3177767 -0.3230735
0001a0 7c 8a 89 be 86 17 87 be f1 a5 98 be 10 3d 30 be
       -0.26863468 -0.26385134 -0.29814103 -0.17210793
0001b0 60 74 76 be 4e 80 8d be a3 88 7d be 8a 98 93 be
       -0.24067831 -0.2763695 -0.24759154 -0.28827316
0001c0 a4 9b ca be 4f 77 a6 be 14 5b 65 be 19 79 d8 be
       -0.3957187 -0.325129 -0.22398025 -0.4227989
0001d0 c3 a5 a9 be 98 96 b0 be de 58 b7 be db a2 81 be
       -0.3313428 -0.34489894 -0.35809988 -0.2531956
0001e0 73 58 93 be fc e8 88 be 8a 70 9b be 9a 22 c5 be
       -0.2877842 -0.26740253 -0.30359298 -0.3850296
0001f0 66 bb 95 be 16 e8 83 be b0 d5 89 be c7 b5 54 be
       -0.29244536 -0.25763005 -0.26920843 -0.20772468

model.encoder.down.0.block.0.conv2.weight_quantizer_0.x_max f4 [128, 1, 1, 1]
000000 07 4f 40 3e 56 4f b5 3e 43 c4 75 3e bb df 79 3e
       0.18780147 0.3541209 0.24000649 0.24401753
000010 72 40 a6 3e 96 d7 84 3e 1d 3f b4 3e 12 e4 80 3e
       0.32471043 0.2594573 0.35204402 0.25174004
000020 eb b3 6f 3e dd 5a 43 3e 91 7d 5d 3e c6 5f 5f 3e
       0.23408477 0.1907763 0.21629931 0.21813878
000030 5d 6b e1 3e e7 71 96 3e fd 33 7c 3e 3f ce 8c 3e
       0.44027224 0.29383776 0.24629207 0.27501103
000040 7e 81 85 3e 10 0e 76 3e 37 81 35 3e b4 56 97 3e
       0.26075357 0.24028802 0.17725073 0.29558337
000050 7d 56 e9 3e 8d 7a 9b 3e 9e cb a1 3e 31 03 5d 3e
       0.45573798 0.30366936 0.3160066 0.21583249
000060 9c 0f 35 3e 5e 9e 96 3e 93 ff 88 3e 12 61 d3 3e
       0.17681736 0.294177 0.26757488 0.41284996
000070 51 4c 74 3e 24 72 64 3e 14 8c 39 3e 03 87 82 3e
       0.23857237 0.22309166 0.18119842 0.2549363
000080 cb 7f 84 3e bd 7f 86 3e 77 c4 b1 3e 42 7d 98 3e
       0.25878748 0.26269332 0.34720203 0.29783064
000090 39 04 72 3e 6e 4e 94 3e 46 a1 84 3e d0 6d 95 3e
       0.23634423 0.28966087 0.25904292 0.29185343
0000a0 dd 88 cd 3e 67 c9 58 3e b6 97 df 3e a3 39 89 3e
       0.4014348 0.21170579 0.43670434 0.26801786
0000b0 0e 8c 5e 3e 4d 04 8c 3e 63 53 79 3e 64 7e 82 3e
       0.21733114 0.2734703 0.24348216 0.25487053
0000c0 5d 8c e3 3e 0a 9c a8 3e be 4a 87 3e 9b b7 76 3e
       0.44443026 0.32931548 0.2642421 0.24093477
0000d0 d3 3e 66 3e c3 75 98 3e f5 fc 77 3e ff ec 8d 3e
       0.22484903 0.29777345 0.24217589 0.27719876
0000e0 15 0e 9a 3e b8 1a cd 3e 74 8d 87 3e fb 75 94 3e
       0.3008887 0.40059447 0.26475108 0.28996262
0000f0 29 1a 84 3e 38 3b c6 3e c6 3b 6a 3e 13 f1 b4 3e
       0.2580121 0.38717055 0.22874364 0.35340175
000100 2d 65 ae 3e 38 6c 54 3e 83 30 92 3e 94 62 89 3e
       0.34061566 0.20744407 0.28552637 0.26833022
000110 65 4d ae 3e 36 96 db 3e 3c 45 96 3e 8f 11 8f 3e
       0.34043422 0.4288804 0.29349697 0.27943084
000120 63 c8 c3 3e 0d c8 ac 3e aa 0a ab 3e 6a d3 22 3e
       0.3823882 0.33746377 0.33406574 0.1590096
000130 a5 b2 67 3e ce cd 82 3e d2 b9 87 3e b2 0c a1 3e
       0.22626741 0.25547642 0.26508957 0.31454998
000140 9b 27 ab 3e bb bc 8f 3e 49 6a 94 3e b5 d8 86 3e
       0.33428654 0.28073677 0.2898734 0.2633721
000150 3c 6d 6f 3e 34 36 5f 3e 3b a7 c1 3e eb 92 ab 3e
       0.23381513 0.2179802 0.378229 0.33510527
000160 e4 8b 2e 3e 1f e2 c9 3e 67 fb af 3e ed c1 57 3e
       0.17045552 0.3943033 0.34371492 0.2107007
000170 fb 73 a5 3e f5 6b 20 3e ed 10 6c 3e 9b 05 62 3e
       0.3231505 0.15666182 0.23053332 0.22072451
000180 09 cb 8a 3e 8a 18 bc 3e d8 bf 96 3e 3d 9c 9c 3e
       0.2710803 0.36737472 0.2944324 0.3058795
000190 a5 74 41 3e 81 4b a3 3e a6 d3 b9 3e 07 d3 41 3e
       0.18892153 0.31893542 0.36294287 0.18928157
0001a0 10 2f 98 3e 9c 78 8c 3e 41 aa 9c 3e 89 2b 6f 3e
       0.29723406 0.27435768 0.30598643 0.23356451
0001b0 1b 79 78 3e 4f 10 82 3e 47 12 a0 3e 75 89 67 3e
       0.24264948 0.25403067 0.31263945 0.2261103
0001c0 dc 9a 8a 3e 6e 63 d2 3e 90 19 73 3e af cc c6 3e
       0.27071273 0.41091484 0.2374022 0.38828036
0001d0 00 4d 7c 3e 0d 38 63 3e 73 35 97 3e f0 e1 9a 3e
       0.24638748 0.2218935 0.29532966 0.30250502
0001e0 5b a1 58 3e 8c 95 b3 3e 1a 2a 93 3e 27 46 ad 3e
       0.21155302 0.35075033 0.28743058 0.33842584
0001f0 58 27 94 3e cd 11 d2 3e 84 bb 90 3e 27 d2 6b 3e
       0.28936267 0.41029206 0.28268063 0.23029386
